pth_tflite_converter/model/onnx/gesture_transformer_epoch409_onnx_simplified_path.onnx (onnx, 524113 bytes, 19 tensors)

classifier_main.0.weight f4 [128, 256]
000000 1a 32 53 bd 6f 1c 3b 3e b7 70 7d be 8e c9 49 be
       -0.051561452 0.18272565 -0.24750029 -0.19705793
000010 73 7a 41 3e 0a 1a eb bb 97 3c 36 3e 50 9e cc bd
       0.18894367 -0.007174735 0.1779655 -0.09991133
000020 d1 89 78 3d 1e 40 2a 3e 56 89 19 3e 44 b7 c1 3d
       0.060678307 0.16626021 0.14993796 0.09458783
000030 a6 2b 19 3e d3 33 4c 3d 12 10 76 be 03 d7 24 3e
       0.14958057 0.04985411 -0.24029568 0.16097645
000040 a8 00 37 be a3 d2 39 be 55 c1 e5 3d 16 73 99 3e
       -0.17871344 -0.18146758 0.11218516 0.29970616
000050 81 92 09 3e f1 33 0b bd 12 42 26 bd 80 f0 dc 3d
       0.13434793 -0.033985082 -0.040590353 0.10788059
000060 05 2c 19 be e1 25 11 be 69 7f 19 3e 64 79 10 bd
       -0.14958198 -0.14174606 0.1499001 -0.035272017
000070 f6 f3 c6 bd 43 12 86 be 91 c4 4c be fe 51 01 be
       -0.097145006 -0.26185808 -0.19996859 -0.12628934
000080 f0 a7 04 3e 3a f2 44 3e 6f e3 47 3e 75 15 2d be
       0.12954688 0.19233027 0.19520353 -0.16902716
000090 4d 27 85 3e 67 a1 31 3e 33 1f 22 3e 24 fd a6 bd
       0.26006547 0.17346726 0.15832214 -0.081537515
0000a0 6f a2 06 3e a5 ba 1a be 70 ba 5f 3e 31 2c ba 3d
       0.13147901 -0.15110262 0.21848464 0.0909046
0000b0 2a c2 1d be fd 27 0f 3e 50 8b 51 3e 75 68 2f 3e
       -0.15406099 0.13980098 0.204633 0.17129691
0000c0 e5 69 b3 bd 54 95 87 3d 30 aa 29 3e 81 58 fc bc
       -0.08760432 0.06620279 0.16568828 -0.03080392
0000d0 2e f1 9a 3e fc 1b e1 3d 92 90 42 be 07 9a 1b be
       0.3026213 0.10991666 -0.19000462 -0.15195476
0000e0 b8 bd fa bd e6 ec ab bd 6e 24 23 3c a3 86 57 3e
       -0.12243217 -0.08394794 0.009957416 0.21047454
0000f0 f6 4c a2 bd df 4f 02 3e ca c1 8b bd 25 d7 8d 3e
       -0.079248354 0.12725781 -0.06824072 0.27703205
000100 7b db 1b 3e b8 d9 bc bd fb 20 19 3e 79 af 2f 3e
       0.15220444 -0.09221214 0.14953987 0.17156781
000110 14 f1 75 3c 3d 66 15 3e 46 11 05 be 1a 2a 53 3e
       0.015011091 0.14589782 -0.1299487 0.20621529
000120 6a 27 49 3e 92 e9 d9 3d f2 c0 72 bd cf da 48 3e
       0.19643942 0.10640253 -0.05926604 0.19614719
000130 aa e9 41 be 45 eb 99 3e 81 31 01 be c3 61 41 be
       -0.18936792 0.3006231 -0.1261654 -0.1888495
000140 0c a6 62 be d0 cb ac bc e5 ae 8d 3e 79 ed 0a be
       -0.22133654 -0.02109328 0.27672496 -0.13567151
000150 a3 b5 e5 bd d4 d5 41 be 01 63 3a be db e1 03 3e
       -0.11216285 -0.18929225 -0.1820183 0.12879126
000160 5a 98 59 3e 92 dd 5f bc aa 28 37 3e 7e 80 2c 3e
       0.21249524 -0.013663666 0.17886606 0.16845891
000170 4b 2b 26 3c 73 4e 5a bd 76 54 8f bd bc 86 6f 3e
       0.010142158 -0.05329747 -0.069985315 0.23391241
000180 1a 19 14 3e c1 a3 9e bd 1f 0a da 3d d2 cd 2e 3e
       0.144627 -0.07746077 0.10646462 0.17070702
000190 3c a9 1c be 91 bd da 3d 92 5c 34 3e 3b c7 69 3e
       -0.15298933 0.10680688 0.17613438 0.22829907
0001a0 bb 18 db bc 66 98 dd bc 08 45 53 be 54 d3 4a 3e
       -0.02674519 -0.027050208 -0.20631802 0.19807178
0001b0 98 d9 ff bd bd 82 1f 3e a8 7c 55 3e 86 d2 31 3e
       -0.124926746 0.15577216 0.20848334 0.17365465
0001c0 7c 1e 1e 3e 4c ea 97 3d 65 1e 7b be 26 88 33 3e
       0.15441316 0.074177355 -0.24523313 0.17532405
0001d0 4b 11 f2 3c 3e ed 69 3e 22 59 e2 bd d6 47 d6 3d
       0.029549262 0.22844407 -0.11052157 0.1046292
0001e0 47 c3 5f 3b d8 ad 19 be 40 89 66 3e c6 d6 f6 bc
       0.0034143494 -0.15007722 0.22513294 -0.030131709
0001f0 ed 81 91 bd e2 c1 d4 bd 79 ad 58 3e 82 fa 5a be
       -0.071048595 -0.10388543 0.21159925 -0.21384624
000200 83 93 36 3d b8 d8 82 bd 90 63 a8 b7 bf ab cb 3c
       0.044574272 -0.06388992 -2.0073523e-05 0.024862168
000210 8a 4d 80 bd fa 04 95 3d 1b 28 12 3d be 09 27 3c
       -0.062647894 0.0727634 0.03568278 0.010195194
000220 42 fb b0 bb 62 2d e9 3c a0 bb ce 3b c3 3e ce bc
       -0.005401046 0.028464023 0.0063089877 -0.025176411
000230 a2 1a 61 3b e7 f9 97 3d 00 88 84 3d 98 bb fe bc
       0.003434815 0.07420712 0.064712524 -0.031095311
000240 d6 ad 33 ba ac 35 3e bd 93 85 96 3d 75 0d 46 bd
       -0.00068542117 -0.046437904 0.07349696 -0.048352677
000250 dd 37 4d bc 85 e3 c0 3c e4 c5 7a 3d 79 95 70 bd
       -0.012525526 0.02354599 0.06122388 -0.0587363
000260 4f b8 0b bd c8 9d ab bc 36 6d 8f 3b 5b 7d 8b bd
       -0.034111317 -0.02094926 0.0043770326 -0.06811019
000270 e3 07 34 3c 46 aa ba bc 51 b2 9a 3d 01 0c 48 3d
       0.010988208 -0.02278627 0.075535424 0.048839573
000280 7a 7d 96 3d f4 95 3d 3d c7 e1 00 3d 3a 16 60 bd
       0.073481515 0.046285585 0.031465318 -0.054708697
000290 5c 1b 55 bb d2 b0 2b bb 27 8a 15 bd 4c 82 8f 3d
       -0.0032517528 -0.0026197922 -0.036508705 0.07007274
0002a0 32 4f 86 bd 3a 78 b2 3b 13 c4 39 3b 6a 43 5a 3c
       -0.06558074 0.005446461 0.002834563 0.013321737
0002b0 79 d4 9b bc d0 d1 a0 bd bf 6c 38 bd 94 92 7e 3c
       -0.019022213 -0.078525186 -0.045025583 0.015537877
0002c0 08 49 ce 3c 94 63 15 bd a2 20 32 bd 1b 21 55 bd
       0.025181308 -0.03647192 -0.043488152 -0.052033525
0002d0 c8 61 81 3c 6f 30 c7 3c e3 1a 59 3b a2 79 90 3d
       0.015793696 0.024315087 0.0033127598 0.070544496
0002e0 10 2a 75 bc 5b 05 1a bb 12 d5 e8 bb 78 8b 46 3c
       -0.014963642 -0.0023501727 -0.007105478 0.012118213
0002f0 ae a9 28 bd 28 4f 61 3c cd 2b 87 bd e8 7b 4d bd
       -0.041177444 0.0137517825 -0.06600151 -0.050166994
000300 30 f6 13 bd d9 2a 93 bc 80 2c 3b 3d ea 18 48 3d
       -0.036123455 -0.017964767 0.045696735 0.048851885
000310 71 89 07 bd 35 74 98 bb 89 d5 76 bc 37 9f 36 bd
       -0.03309006 -0.004652525 -0.015065559 -0.044585433
000320 ee 32 22 bd 67 44 d5 3c 2f 97 bf bc a7 80 e5 bc
       -0.03959935 0.026033593 -0.02338752 -0.028015448
000330 10 b7 8c 3c 2a 96 f3 3c 33 0c 8c bc ca 2d 06 3d
       0.017177135 0.02973469 -0.01709566 0.03275851
000340 ad 7a 97 3c ff 50 07 bc c0 21 ab 3c 85 55 f1 bc
       0.018491114 -0.008259057 0.020890117 -0.029459724
000350 71 fc 98 3b f6 96 ce 3c 6b e8 66 bd d4 4e 94 3c
       0.0046687652 0.025218468 -0.056373995 0.018103994
000360 05 e4 8d 3c 3c 04 59 3d c1 be 5c 3d e0 9b 7a bc
       0.017320642 0.052982554 0.053892855 -0.015295953
000370 91 88 8c 3d 9f 01 e1 3c 49 8c 5d bb fa e9 30 bd
       0.068619855 0.027466593 -0.003380554 -0.043191887
000380 db 24 8a 3c 99 07 75 3a 23 26 24 bd c9 29 25 3d
       0.016863277 0.00093471404 -0.040075433 0.040323053
000390 43 03 3a bc 91 a4 ac 3c c7 6d d8 bc ac 4f 85 bc
       -0.011353317 0.021074565 -0.026419533 -0.016273342
0003a0 33 60 99 bc a2 4d 87 bd 43 2c 84 bd 03 95 49 bc
       -0.01872263 -0.06606604 -0.06453755 -0.012303594
0003b0 8c 43 8a 3d aa 1d b4 3c 34 11 20 bc 11 ee ea 3c
       0.06751165 0.021986801 -0.009769727 0.028677972
0003c0 18 af e5 3c f8 1d a0 3c 16 ce 3a bd 2f 77 b0 3c
       0.028037593 0.01954554 -0.045606695 0.021541206
0003d0 17 27 b6 3c 78 f7 8b 3d 5f 74 fb bc bb 5e 7b 3d
       0.022235436 0.0683431 -0.030695138 0.06136964
0003e0 b2 bc 4b bd c9 ae 4a 3d f9 49 fc bc 2c ce 5b 3c
       -0.0497405 0.049483094 -0.030796992 0.013415854
0003f0 83 b4 7a bd 17 ee 81 3c 9d cd 79 bc f5 ca 9d 3c
       -0.061207306 0.0158606 -0.015246776 0.019261817

classifier_main.0.bias f4 [128]
000000 43 3b 3b bc 98 1b 58 3d 47 30 dc bc cb b8 d9 bc
       -0.011427703 0.05276069 -0.02687849 -0.026577374
000010 34 9e 3f bc a5 ff 58 bc 4a 23 4b 3d 50 3b 50 3d
       -0.011695433 -0.013244544 0.0495942 0.050837815
000020 b5 28 9d bb 3a 35 70 3d 3a 70 93 3d 49 97 1f 3d
       -0.0047961124 0.05864451 0.0719914 0.038962636
000030 ca 7d 2e 3d 2c fe 26 3d d9 53 1c bd 23 c4 2c 3d
       0.04260043 0.04076974 -0.0381659 0.042179238
000040 b9 d0 4b 3d c0 15 fb 3b 72 d1 19 3d e4 d6 d9 3c
       0.0497596 0.007662505 0.03755326 0.026591726
000050 e5 68 1f bd 23 6b 8b bd f4 b8 76 bc 9d a7 d1 bc
       -0.038918395 -0.06807544 -0.015058745 -0.02559262
000060 d8 d5 88 bc d8 e7 4a bd 3d e7 0b 3d e1 9d c3 bc
       -0.016703531 -0.04953751 0.034156073 -0.023878993
000070 b0 ca b2 bc f0 6c 41 3d 59 73 81 3d 69 a8 41 bc
       -0.021825165 0.04722303 0.06320829 -0.011819937
000080 e3 99 9c 3d 4a b7 85 3c f8 a1 20 bd 46 e5 20 bd
       0.07646539 0.01632275 -0.039216965 -0.039281152
000090 70 33 d8 bc 08 6d 2a 3c 41 ed d2 bc 8d b4 7d 3d
       -0.026391715 0.010401972 -0.025747897 0.061939765
0000a0 c0 4b a3 3c ef 32 62 bd 0d 25 71 3d be 1e e3 ba
       0.019933581 -0.055224355 0.058873225 -0.0017327887
0000b0 d6 08 2b 3d 42 53 21 bd 85 85 1e 3d 17 95 e1 3b
       0.041756473 -0.03938604 0.038701553 0.006884228
0000c0 0b 9d ba bc 33 8b 3c 3d b5 fb 65 3c 79 09 df bc
       -0.022779962 0.04603119 0.014037062 -0.027226197
0000d0 ed f9 b4 bc cd 39 c9 bc eb a0 18 3d 29 15 3f 3d
       -0.02209183 -0.024563694 0.03726284 0.04665104
0000e0 2d b3 4c bc ab d2 04 bd ef 50 53 3d 35 65 89 bc
       -0.012493891 -0.03242747 0.051590856 -0.016771892
0000f0 4b f1 35 bd c7 73 2c bd b4 00 15 3d c5 cc 2c 3a
       -0.044419568 -0.0421026 0.036377624 0.00065917923
000100 9f b9 ed 3c 8f f7 19 3d 64 7e 9d bc d9 8a 48 bd
       0.029019175 0.037589606 -0.019225307 -0.04896054
000110 48 ec 8c 3b ba 38 3d bd ad 7f 8b 3c 82 b2 f1 bc
       0.004300628 -0.046196677 0.017028654 -0.029504064
000120 a0 7a 97 3c 9f 38 40 bd 24 87 92 bc 88 81 d6 bc
       0.01849109 -0.046928998 -0.017886706 -0.026184812
000130 98 17 88 3c 9c 31 18 bc 5b 6c 28 bc 13 b4 93 3d
       0.016612813 -0.009289172 -0.01027974 0.07212081
000140 2a 8f 8a 3d 49 86 84 3d 80 ea fd bc 4e 24 6a 3c
       0.06765588 0.06470925 -0.030995607 0.014290882
000150 6d f7 40 3d b1 d4 35 3d 79 89 ac 3c 81 11 18 3d
       0.047110964 0.04439229 0.021061646 0.037126068
000160 e4 26 95 3d 7d d7 36 3d 72 bd 64 3d c9 66 e7 3c
       0.072828084 0.0446391 0.05584473 0.028247254
000170 9c c0 30 3d 9d 0e be bb 33 da b0 3c 25 1c 06 3d
       0.043152437 -0.005800082 0.02158842 0.032741684
000180 f7 48 34 bd 10 0b d1 3c 27 5f 7b bd b3 77 18 3d
       -0.044014897 0.02551797 -0.06137004 0.03722353
000190 b0 48 13 3b 86 ab 9c bc b2 fc f0 ba cf 95 29 38
       0.0022473745 -0.019124757 -0.0018385856 4.043226e-05
0001a0 9c dc c0 bc 9a a3 b5 bc 0a 1b 39 3d 90 53 63 3d
       -0.023542695 -0.022172738 0.045191802 0.055499613
0001b0 14 88 7e 3d 91 33 af 3c e2 60 b6 bc f2 96 94 bc
       0.062141493 0.021386893 -0.022262994 -0.018138383
0001c0 a1 a2 26 3d 41 e4 a1 3a cc f4 6a 3c bc 09 1c 3d
       0.04068244 0.001235135 0.014340591 0.03809522
0001d0 6c b0 1f bd aa ef 15 3c f6 31 4e 3b 04 ca 59 3c
       -0.03898661 0.009151379 0.0031462885 0.013292793
0001e0 3d cf d4 3c d1 20 b8 3d df e4 90 3d 7f cd 9d b9
       0.025977725 0.08990634 0.07074904 -0.0003009848
0001f0 c5 98 7f 3c 1d 70 18 bd 91 47 8d 3d d8 a6 65 bd
       0.015600388 -0.037216295 0.06898416 -0.056067318

classifier_main.3.weight f4 [1, 128]
000000 88 b6 de be d6 c6 fe be 58 b5 aa bd 98 13 d4 be
       -0.43498635 -0.49761075 -0.0833537 -0.414212
000010 a9 52 fb 3e fc 4a f0 3e b9 84 03 bf 01 80 e7 be
       0.49086502 0.4693221 -0.51374394 -0.45214847
000020 fd 1c e4 be cf 14 f7 3e 27 8a 15 3f 10 cd d2 be
       -0.44553366 0.48258063 0.5841393 -0.41172075
000030 0b d5 98 bb 31 be f7 3e 00 2c cb be 27 fb 01 3f
       -0.0046640686 0.48387292 -0.39682007 0.50773853
000040 e1 35 05 3f 67 2c d1 be 4b a2 fc 3e 58 2f 03 bf
       0.5203534 -0.4085419 0.4934257 -0.51244116
000050 1d 5b f8 be 73 86 29 3d 5d cc ce 3e 0b 04 db be
       -0.48507014 0.041387986 0.40390292 -0.42776522
000060 e7 d8 a3 be 0c 24 06 bf 2d 2a fc 3e 0e b9 d3 be
       -0.3200142 -0.52398753 0.49250928 -0.41352123
000070 a0 45 ff be a3 03 e4 be c4 35 09 3f 80 02 fb be
       -0.49857807 -0.44534025 0.53597665 -0.49025345
000080 bf 90 f2 3e 9c 93 f4 3e c8 fb e9 be bc 19 f4 be
       0.47376058 0.47768867 -0.45699906 -0.47675884
000090 3c 26 f5 be 20 c8 f7 be e3 61 87 bd c1 00 03 bf
       -0.47880733 -0.4839487 -0.06610467 -0.51173025
0000a0 3b 81 f2 be 71 27 e3 bc 06 a7 0f 3f c9 e5 ed 3e
       -0.4736422 -0.027728768 0.5611423 0.46464375
0000b0 7b 71 01 3f a5 05 e6 be 7d ab ec be 59 4d 06 3f
       0.5056378 -0.4492618 -0.46224585 0.52461773
0000c0 3a 01 e4 3e a7 46 f5 3e d1 12 eb be f4 c7 ef be
       0.44532186 0.47905466 -0.45912793 -0.4683224
0000d0 eb 42 01 3f 35 67 ee be 74 23 ff 3e de 01 0d 3f
       0.50492734 -0.46563116 0.49831736 0.55080974
0000e0 be fe 15 3d 75 81 f6 be 86 a2 fe be ce b2 e0 be
       0.036619894 -0.48145643 -0.4973337 -0.43886417
0000f0 c3 24 e8 be 83 f0 f8 be 0f 27 fc 3e 8c 6e f6 3e
       -0.45340547 -0.48620996 0.4924855 0.48131216
000100 61 98 06 3f 1a 7c 0d 3f 6f 4e c5 be 7f 80 07 bf
       0.5257626 0.5526749 -0.38536403 -0.52930444
000110 bf 27 07 bf 0d 82 a3 bd 41 b3 0f 3f 80 aa e2 be
       -0.5279502 -0.079837896 0.56132895 -0.44270706
000120 a0 64 0a bf c1 eb d7 be c6 f4 01 3f 6b 06 f2 3b
       -0.5405979 -0.42172053 0.5076412 0.007386019
000130 99 53 f0 3e e8 a8 a4 ba 16 08 04 3f f5 84 fb 3e
       0.4693878 -0.0012562545 0.5157484 0.49124876
000140 ba 3b f8 3e 0a 16 fe 3e 10 09 fa be 0c 35 e1 be
       0.48483068 0.4962619 -0.4883504 -0.43985784
000150 da 4c d1 be 1e c2 f5 3e 76 dd f7 3e 3f f0 04 3f
       -0.40878946 0.47999662 0.4841115 0.51929086
000160 d2 09 f5 3e 2f b8 d9 be 4d 66 02 3f c5 9d e5 be
       0.47859055 -0.42523333 0.5093735 -0.4484693
000170 67 97 01 3f e6 8f 02 bf b7 aa f6 3e 5e 69 e6 3e
       0.50621647 -0.5100082 0.4817712 0.45002264
000180 b1 e3 e5 be 47 62 8b 3d fe ad af 3d d8 ef fa be
       -0.44900277 0.06805854 0.08578108 -0.4901111
000190 c2 16 f7 3e 0e b1 fc 3e f9 87 04 bf fa 71 ea 3e
       0.4825955 0.49353832 -0.5176998 0.45790082
0001a0 a5 09 f4 3e 1f a0 f9 be 07 44 fb 3e d8 ea 04 3f
       0.47663608 -0.48754975 0.49075338 0.51920843
0001b0 5b 38 12 3f df 80 0e 3f cb b5 e2 be 84 f1 f4 3e
       0.5711724 0.5566539 -0.44279322 0.47840512
0001c0 e4 c3 07 3f ff fa e1 be 7a 25 ea be 45 08 05 3f
       0.5303328 -0.44136807 -0.45731717 0.51965743
0001d0 86 97 e4 be da 4b 01 bf 32 a6 0a 3f a7 ad fc 3e
       -0.44646853 -0.50506365 0.54159844 0.49351236
0001e0 d8 b9 06 bf 2a 2b f3 3e d9 9b f6 3e 78 fd 0a 3f
       -0.52627325 0.4749387 0.48165777 0.5429301
0001f0 9b bb f7 be 61 12 10 bd e0 45 15 3f c4 35 e2 bb
       -0.4838532 -0.035173777 0.58309746 -0.006903382

classifier_sub.0.weight f4 [128, 256]
000000 8b 4b 01 be 8d 84 a2 3e 8b cc be be 6a 68 be be
       -0.12626474 0.31741753 -0.3726543 -0.37189037
000010 09 cd e7 3e 04 51 8d 3c 46 02 87 3e cf 30 86 be
       0.45273617 0.017250545 0.26368922 -0.26209113
000020 7a 83 06 3e 80 7c ac 3e 7f dd ac 3e 1a b1 6e 3e
       0.13136092 0.33688736 0.33762738 0.23309746
000030 c4 86 bc 3e 69 e7 a0 bc 16 a4 a6 be 5a 40 b0 3e
       0.36821568 -0.019641595 -0.32547063 0.34424096
000040 99 8c a2 be 7f 89 aa be 82 ce 8c 3e 98 2f bf 3e
       -0.31747892 -0.33308026 0.27501303 0.37341
000050 b1 38 5c 3e 8b 57 32 be 96 f6 ab bd 3f 16 bb 3e
       0.21506001 -0.17416207 -0.08396642 0.3654041
000060 bb 29 8e bd 15 4d 2b be 2a 15 a3 3e 8b ac 44 be
       -0.06941553 -0.16728623 0.31852084 -0.19206445
000070 f7 48 89 bd 0c 7e d1 be cf f7 2c be 7e c4 56 be
       -0.0670337 -0.4091648 -0.16891406 -0.20973393
000080 02 f8 35 3e f3 a4 89 3e 4a 43 9a 3e 72 af 44 be
       0.17770389 0.2688366 0.30129462 -0.19207552
000090 ed b7 af 3e 8d de a6 3e 93 de 77 3e 6a 46 85 be
       0.34320012 0.32591668 0.24205999 -0.26030284
0000a0 c6 0e 8e 3e eb 57 3f be f1 a7 8e 3e 96 02 63 3e
       0.27745646 -0.18685882 0.27862504 0.22168955
0000b0 a3 e3 53 be 96 42 a3 3e 55 7e cf 3e ab 35 82 3e
       -0.20692305 0.3188674 0.4052607 0.2543157
0000c0 0a 9b 23 be 33 ff 4c 3e 68 b0 04 3e 31 d4 24 3d
       -0.15977111 0.20019226 0.12957919 0.040241424
0000d0 1d db 04 3f 3f 29 a8 3e 81 0a d9 be 85 e8 8b be
       0.5189684 0.32843968 -0.42390826 -0.27325836
0000e0 3d 2d e5 bd 17 85 49 be 49 ea 63 bd 05 27 b0 3e
       -0.11190269 -0.19679676 -0.055643354 0.3440477
0000f0 e8 9e 01 be d7 5c 79 3e 29 cd 35 be a3 03 a3 3e
       -0.12658274 0.24351822 -0.17754044 0.31838712
000100 cb 8e c3 3e f3 50 21 be cd 5a b4 3e 7a f0 4f 3e
       0.3819488 -0.15753536 0.35225525 0.20306578
000110 80 ec 0e be d5 51 a2 3e 18 e9 a0 be ef e9 94 3e
       -0.13957405 0.31703058 -0.31427836 0.29084727
000120 d0 96 bf 3e 86 b0 9d 3d c6 d2 2a bb 20 93 35 3e
       0.37419748 0.07699685 -0.0026065572 0.17731905
000130 df b2 82 be 61 ca ce 3e f8 79 8c be 13 5a 2e be
       -0.25527093 0.40388778 -0.27436805 -0.17026548
000140 b8 d1 81 be f8 9a fd bd 85 63 98 3e 46 5d 85 be
       -0.25355315 -0.123830736 0.29763427 -0.26047724
000150 fb 80 79 be c4 ed ba be 4f 96 79 be 67 4b 63 3e
       -0.24365608 -0.36509526 -0.24373744 0.22196732
000160 87 0d bc 3e 9a 0f 86 bc 08 92 e6 3e dc 31 e8 3e
       0.3672907 -0.016364861 0.45033288 0.4535054
000170 36 0a 8c bd 87 f0 18 be 1b 3f 87 bc 71 14 a0 3e
       -0.06837885 -0.14935504 -0.016509583 0.31265596
000180 fe 92 83 3e 2b 03 5f be 67 df 9a 3e ee a8 8e 3e
       0.25698084 -0.21778552 0.30248567 0.27863258
000190 5d a5 86 be 45 54 3a 3e dd 47 ba 3e a5 7f 37 3e
       -0.26298037 0.18196209 0.36382952 0.17919786
0001a0 4f 64 22 3d ef c5 95 bd c0 85 f4 bd 57 c0 a7 3e
       0.039646443 -0.073131435 -0.11939573 0.3276393
0001b0 19 4a b6 be ab fa 76 3e 3b 52 91 3e ef 2d c2 3e
       -0.35603407 0.2411906 0.2838305 0.3792567
0001c0 c1 32 b4 3e 08 43 5c 3e 50 ee 36 be ce 66 80 3e
       0.35194972 0.21509945 -0.17864347 0.25078434
0001d0 d3 75 85 ba 53 23 af 3e 89 de fa bd 7b a7 a7 3e
       -0.0010182209 0.34206638 -0.122494765 0.32744965
0001e0 ba 0e be bd 7c b1 7b be 1b 92 e6 3e 8c ff 74 bd
       -0.092801526 -0.24579424 0.45033345 -0.05981402
0001f0 f8 72 3e be a4 e0 8b bd 8c 49 bb 3e 53 77 86 be
       -0.18598545 -0.06829956 0.3657955 -0.26262912
000200 b6 17 4f 3d ea 91 db 3c 0a dd 8e bc 05 69 6f bd
       0.050559722 0.026802976 -0.017439384 -0.058449764
000210 9b c9 4f bd 0a 5e 7f bc 24 85 66 bd 07 50 5d ba
       -0.050729375 -0.0155863855 -0.056279317 -0.0008442406
000220 c5 00 b2 bc c8 07 10 3c f1 aa 78 3d 08 7e 18 3d
       -0.021728883 0.008790918 0.060709897 0.037229568
000230 03 ae f9 3b 93 1f 41 bd df 9a 60 3d be 9d 1f bd
       0.0076196208 -0.047149252 0.054835197 -0.038968794
000240 5a d1 e9 bb 5d 94 bc 3c eb 21 93 3a 24 ec 89 3c
       -0.0071355524 0.023019964 0.0011225318 0.016836233
000250 ac 78 ef 39 15 fa 64 3d df 23 93 3c 4a fb 54 3d
       0.0004567554 0.05590256 0.01796144 0.05199746
000260 a9 7f 3c 3d 65 10 48 bd 97 b3 30 bc 0a 98 e9 3c
       0.046020184 -0.04884376 -0.010785005 0.02851488
000270 16 03 73 bd 4c a7 c6 bc 43 36 3d 3d 93 9a f1 bb
       -0.059329115 -0.024249695 0.046194326 -0.007373163
000280 cf ed 93 3c ec cb e4 3c 04 39 c3 3c 56 ab c7 bc
       0.018057732 0.027929269 0.023830898 -0.024373692
000290 e1 eb 5f bd 2e 32 93 bc 45 93 c8 bc 81 af 41 3d
       -0.05466831 -0.017968263 -0.024484286 0.047286514
0002a0 ea f5 cd bb a2 1d db 3c c3 97 96 3d d1 3c b6 3c
       -0.0062854188 0.026747528 0.07353165 0.022245796
0002b0 16 9f ba 3c 00 4b 79 3c 82 0f f3 bc 39 6b 38 bd
       0.022780936 0.015215635 -0.02967048 -0.04502413
0002c0 5f 74 40 3d d5 32 9b 3d 02 0c 59 bd 14 a3 03 bd
       0.04698598 0.07578055 -0.052989967 -0.032137945
0002d0 cb 8a 3e 3d 9b 13 c1 bb 0b 8f 90 3d 76 0f c0 3c
       0.046519082 -0.0058922297 0.07058533 0.023444872
0002e0 d2 d9 80 3c 9d c9 b2 3b df b8 d8 bc 54 a2 d8 3c
       0.015728865 0.005456163 -0.02645534 0.026444592
0002f0 e3 ad 29 3c c5 22 1c 3b 37 5d 69 bd 80 70 31 bd
       0.010356399 0.0023824435 -0.056973662 -0.04332018
000300 f5 c2 ff 3c af 65 ce 3c f8 e8 f8 3c 89 0c 99 3d
       0.031220892 0.02519497 0.030384526 0.07473094
000310 54 8e 2a 3b 16 24 4a bd e3 15 3a bb 42 b3 b6 3c
       0.0026024776 -0.04935082 -0.0028394393 0.022302274
000320 19 f9 06 3d 83 13 21 bd 80 b9 a3 3c 1a 72 89 bd
       0.0329524 -0.03932525 0.019985914 -0.06711216
000330 af de e4 3c 4b e4 90 bb 96 ae 88 bc 9f 96 ac bc
       0.027938215 -0.004421746 -0.016684812 -0.021067915
000340 f5 68 21 3c e3 24 41 3c 5c 54 78 3d 34 a8 30 bd
       0.009851684 0.01178858 0.060627326 -0.04312916
000350 d1 dc 27 3d 72 57 03 bd 4b fd 17 3d 77 0f af 3c
       0.04098207 -0.032065816 0.037106793 0.021369679
000360 d7 bf 13 bd 58 2c b8 bc 4b e4 1a 3c e9 65 08 bd
       -0.036071625 -0.022482082 0.009453843 -0.033300314
000370 90 01 63 3b 42 c1 3c 3d 79 85 de bb 1c 6a eb bc
       0.0034638382 0.046082743 -0.0067908135 -0.02873712
000380 ea 6c 94 bc 2e 0b 4d bc 6b d4 8d 3c ad 36 c2 bc
       -0.01811834 -0.0125148725 0.017313203 -0.023707712
000390 a1 8c d3 3c 6f ee 24 bd 52 cd 96 bb 04 b2 e9 3c
       0.025823893 -0.04026645 -0.004602113 0.028527267
0003a0 16 90 05 bd cf 8a ed 3b 10 17 2c bc f6 1d a3 3d
       -0.032608114 0.0072492133 -0.010503545 0.07964699
0003b0 d7 e2 09 3d 4e 47 db bb 46 27 35 3d 94 26 04 3d
       0.033663597 -0.00669185 0.044226907 0.032263353
0003c0 a3 4f 63 bc 4b 19 8e 3c 6a 4f 80 bd 29 90 be bc
       -0.013873967 0.017346045 -0.06265147 -0.0232621
0003d0 57 76 86 3c 3d 79 66 3d ce 90 07 bd d2 e9 95 3d
       0.01641385 0.056267966 -0.03309708 0.07319988
0003e0 32 d5 28 3d a5 d2 a0 bb 7e f0 c2 bc e3 47 44 bd
       0.041218944 -0.0049079233 -0.023796316 -0.04792012
0003f0 40 1f 2f 3d c2 5b e5 bb 55 06 63 bd ab a2 67 bd
       0.04275441 -0.006999464 -0.05542596 -0.056551617

classifier_sub.0.bias f4 [128]
000000 7e b6 4b bd 4c 44 97 bc b5 ce 47 bd 75 44 87 3d
       -0.049734585 -0.018465184 -0.048781116 0.06604854
000010 ab bc ec ba 99 10 97 3c 44 1d 93 3d 9c c9 33 3c
       -0.0018061599 0.018440532 0.07183316 0.01097336
000020 f4 69 95 3d d7 2f e1 bc b7 be 5d bd 0c 0f 06 3d
       0.072955996 -0.027488632 -0.054136958 0.032729194
000030 8c 60 5b 3d 40 42 85 3c 99 a2 1e bd 11 4d 8e 3d
       0.05355887 0.016266942 -0.038729284 0.06948293
000040 1e 3e 60 bc 2d c7 ca 3b 07 24 6c 3c 88 ff 0c 3a
       -0.013686685 0.0061882944 0.014412886 0.00053786533
000050 f9 66 89 3d a2 b6 aa 3d 96 92 42 bd 0d 21 5f 3c
       0.067090936 0.08335616 -0.047503076 0.01361872
000060 05 74 c4 3d 9e 47 82 bd 7f b1 e3 3c fc 8a 32 bd
       0.095924415 -0.06361316 0.027794598 -0.043589577
000070 8b 4c 48 3d 78 f2 f0 bc 00 2c 43 3d 93 23 b7 3c
       0.048901122 -0.029412493 0.047649384 0.02235583
000080 69 61 17 3d 7b 70 67 3d 32 e7 d5 3c 6b c8 8b 3d
       0.036958132 0.056503754 0.02611122 0.06825336
000090 30 75 75 3c 81 90 37 3c e5 b4 84 bc ec 28 3b bb
       0.014981553 0.011203886 -0.016199538 -0.0028558327
0000a0 95 36 e9 bc 2f cf 2c 3d 2c a0 54 3d 69 a5 1b bc
       -0.02846841 0.042189773 0.051910564 -0.009499886
0000b0 c5 77 b5 bd 51 e6 46 bd ea 07 10 3c e6 cb 7a 3a
       -0.08860735 -0.04855949 0.008790949 0.00095671264
0000c0 d6 15 9b bc 94 60 05 3c 1e b4 f1 ba 1c a8 e1 bc
       -0.01893131 0.008140702 -0.001844052 -0.027545981
0000d0 13 84 86 3c 7b 69 ce bc 49 2f a6 bc 69 14 d0 3c
       0.0164204 -0.025196781 -0.02028622 0.025400357
0000e0 dd a5 06 bc e5 57 7d bd c8 6e 04 3d 61 b5 4b bd
       -0.008218256 -0.0618514 0.03233221 -0.049733523
0000f0 11 08 09 bd d4 25 72 bb b6 74 87 bd 58 a8 a8 3c
       -0.03345496 -0.0036948817 -0.06614058 0.020588085
000100 98 be a0 3d bb b3 8f 3d 0c b5 ff bc c1 b1 b2 3c
       0.07848853 0.07016703 -0.03121426 0.021813275
000110 19 b5 20 bc ba 57 ed 3c fc 0f f5 bb 5a 0f e2 3c
       -0.009808802 0.028972495 -0.007478712 0.02759521
000120 6a 93 84 bc b2 b8 12 3d 20 8e 01 3d 58 5e ca 3d
       -0.016183574 0.03582067 0.03162968 0.09881276
000130 50 7b de 3c e3 44 86 3d d5 34 6a bd d8 71 bb 3c
       0.02715841 0.06556108 -0.05717929 0.022881433
000140 82 7c fb 3c b9 55 b1 3d e3 2b 81 3d 34 6b b9 3d
       0.030699018 0.086589284 0.06307199 0.090536505
000150 92 b3 88 3d 14 2b 72 bd 0e 64 9d 3d 17 82 50 3c
       0.06674875 -0.059123114 0.076850995 0.012726328
000160 b4 31 0b 3c b4 1c 56 bc 68 17 28 bd 06 dd 76 3d
       0.008495737 -0.013068367 -0.041037947 0.060269378
000170 2a 11 02 3d 2c 58 f4 bb fc 96 98 3c 0c b1 67 3d
       0.03175465 -0.0074568 0.018626682 0.05656533
000180 26 e3 6b bd de 86 5d 3c a8 36 ab 3d b6 6b ca 3c
       -0.057589673 0.013520924 0.08360034 0.024709564
000190 c6 c6 aa 3d 26 01 12 3b 98 53 f9 bc 02 30 38 bd
       0.08338694 0.0022278517 -0.030435368 -0.04496766
0001a0 5f 87 7f 3c b3 34 e1 3c a6 ea f9 3c 8b c5 fc bc
       0.01559624 0.02749095 0.030507397 -0.030855915
0001b0 05 bb 97 3d 22 31 67 3d bb 3f bf 3a be 5c 57 3d
       0.07408718 0.05644334 0.0014591137 0.05257868
0001c0 2d 27 53 bd 98 38 b1 3d cc 18 19 bd b9 1c bc 3c
       -0.051551033 0.086533725 -0.037377164 0.022962915
0001d0 ce 6d 0d 3c 80 9d 34 bc ce 3d c9 bc 33 6e 1e bd
       0.0086321365 -0.011023879 -0.024565604 -0.038679313
0001e0 2e 11 29 3d 34 0a f8 bc 2c 87 15 bd 13 e1 cf 3b
       0.04127615 -0.030278303 -0.036505863 0.0063439696
0001f0 84 0b 3b 3d 3e b0 c6 ba 2e fa 8e bb b9 b1 df 3c
       0.04566528 -0.0015158725 -0.00436332 0.027306424

classifier_sub.3.weight f4 [8, 128]
000000 a9 c0 14 3e 7c 93 81 3d e2 9d 1f 3e 2f a3 49 bf
       0.14526619 0.063269585 0.15587571 -0.78764623
000010 2a 2e dd be 05 ee 87 3e da 5f 19 bf bc 4f 22 bf
       -0.43199283 0.26548782 -0.5991188 -0.63402915
000020 6c e3 f7 3d d3 36 2e bc 36 fa 9e 3d b6 5b 85 3e
       0.12103924 -0.010633188 0.07762568 0.26046532
000030 70 4a 73 3d e0 71 fe bc 7d a2 cb 3d f6 77 52 3e
       0.05939716 -0.03106016 0.099431016 0.20553574
000040 c5 84 65 3e 9c 06 fa bd 21 90 0b 3e 33 9a 55 3e
       0.22413929 -0.12208292 0.136292 0.20859604
000050 3a 8d 0d 3e 75 55 59 3d c5 c5 39 bd 88 9c e8 3d
       0.13823405 0.053060014 -0.045354623 0.11357981
000060 c0 b3 34 be ab 04 f5 3c 91 a1 3a 3e e9 15 19 bd
       -0.17646694 0.029909452 0.18225695 -0.03737441
000070 10 32 53 3e 4c 9b ea 3d 4e aa 7a be e7 fd 79 bf
       0.20624566 0.11455402 -0.24479029 -0.9765305
000080 7d d5 bc 3d 9c 54 9f 3d 8f e0 42 bf 78 cb f1 be
       0.09220407 0.0777981 -0.761239 -0.47225547
000090 57 42 08 bf 0b 7b 42 3e 21 2d e2 3d 62 8d 67 bf
       -0.53226227 0.1899225 0.11043764 -0.9045011
0000a0 2f e6 31 bf ef 39 3e bf a2 9c b0 3e 1e bf 99 be
       -0.6949186 -0.7430715 0.344945 -0.30028623
0000b0 f0 4a a0 be 4d f8 0b 3e 8d 91 2b bd 9e 79 5a 3d
       -0.31307173 0.13668938 -0.041886855 0.05333864
0000c0 53 cf 6d bf c5 4f 3f be 57 02 e7 3d a9 b0 6d 3e
       -0.92894477 -0.18682773 0.11279743 0.23211922
0000d0 80 09 3b bd 71 99 83 be 3c ad 09 3e 35 23 56 bf
       -0.045663357 -0.25703004 0.1344499 -0.8364747
0000e0 01 55 dc 3d bc 68 d1 3c b1 e6 94 3d 59 ab d0 3d
       0.10758401 0.025562637 0.072705634 0.10188932
0000f0 bc 4f 13 3e 52 11 49 3d 91 60 13 3d d5 5a 68 bc
       0.14385885 0.049088784 0.035980765 -0.014181812
000100 80 28 35 3e 5b 82 bf bc 67 ae 18 3e d8 f6 e4 3d
       0.17691231 -0.023377588 0.14910279 0.11179894
000110 2c 1c 19 3e 9d ca 66 3e d7 1e 10 bf 8c 24 29 bf
       0.14952153 0.22538228 -0.5629706 -0.6607139
000120 00 7d 26 bf 95 30 a9 3e 23 17 0a bf f1 63 39 bf
       -0.65034485 0.33044878 -0.53941554 -0.72418123
000130 66 e7 18 be 43 93 05 3e b8 4f ff 3d 5a a9 bc 3d
       -0.14932021 0.13044457 0.12466377 0.09211989
000140 98 2a 57 3e df 9b 94 3e a4 df d8 be e5 cf 77 3d
       0.21012342 0.2902517 -0.42358124 0.060500998
000150 81 4a e5 be 20 41 a6 be a8 25 17 3e 6f 19 8a 3d
       -0.44783404 -0.3247156 0.14760458 0.06743132
000160 6f b9 a6 bd 89 f7 31 3d 83 b7 ab 3d 52 76 95 3d
       -0.081408374 0.04344896 0.083846115 0.072979584
000170 4a 6a 2c bf e5 bd 09 3e c9 1e 69 bf 81 11 b9 3d
       -0.67349684 0.13451345 -0.910626 0.09036542
000180 c7 b3 6c bf 4e d7 9d 3d cd e4 37 bf 10 44 e3 be
       -0.9246182 0.07707082 -0.718335 -0.44387865
000190 61 03 11 be 1c 51 b1 be 51 6e ca bc 16 1b 81 bd
       -0.14161445 -0.34632194 -0.024710806 -0.06303994
0001a0 2f 83 23 3e bc eb e9 3d 2e 29 e8 3d 0c a9 60 bc
       0.15968011 0.11421916 0.113359794 -0.013712179
0001b0 45 04 e8 be f0 41 fb 3d 7b f1 69 3e 6e de 45 bf
       -0.45315757 0.12268436 0.22846024 -0.77292526
0001c0 45 cd 5e 3c 36 33 43 bf 21 94 8b 3e 12 c2 b7 3b
       0.013598745 -0.76250017 0.2726145 0.005607852
0001d0 e0 ce c5 be e4 f1 84 3e 70 58 04 3f dc 27 96 3d
       -0.38634396 0.25965798 0.51697445 0.07331821
0001e0 94 19 1a 3e a4 01 92 3d 96 6c 08 3e dc 70 0a 3d
       0.1504882 0.07129219 0.13322672 0.033799037
0001f0 d4 e4 b3 3d d2 f2 e0 bd 2a e7 fc bd a5 a7 85 3d
       0.0878388 -0.10983814 -0.123487785 0.06526116
000200 48 5a 1e 3e 77 3c 0d bd d6 f8 ec 3d 31 82 12 bf
       0.15464127 -0.034481492 0.11570899 -0.57229906
000210 e7 41 2b bb 19 82 2a 3c 4f a2 39 bf 4a 7b 37 bf
       -0.002613181 0.010406994 -0.7251329 -0.716725
000220 6f 34 b9 3d 7d cb 18 3e 12 90 85 3c 4e 43 bb bd
       0.09043204 0.14921375 0.01630405 -0.09143697
000230 0a 1e c0 3d 5b 18 95 bc eb 5d 02 3e 6b 24 21 bf
       0.093807295 -0.01820009 0.1273114 -0.62946194
000240 5f 50 75 3e e2 46 37 3e 97 69 d3 3d fe 77 a4 3d
       0.2395644 0.17898133 0.10322874 0.08030699
000250 54 60 05 3e dd 20 a4 3d 03 d4 1f bd 8c 25 0c 3e
       0.13025028 0.08014081 -0.03902055 0.13686198
000260 11 bd d7 bc e6 a1 f9 3d 13 c8 1b 3e 3b 82 f9 bc
       -0.026335271 0.12189083 0.15213041 -0.030457607
000270 c3 5a 3e be c0 e4 dc 3d 7a dd 06 3e 87 89 0e bc
       -0.1858931 0.10785818 0.13170424 -0.008699781
000280 74 48 b2 bd be f7 0c 3d a5 4a 90 be c0 04 49 bf
       -0.087052256 0.034415953 -0.2818195 -0.7852287
000290 25 62 39 3e 57 ba bd 3b 17 67 79 3d b2 7a 0d be
       0.18103845 0.0057900357 0.06088933 -0.13816336
0002a0 e7 3d 26 3e e9 5c 33 bf e5 c2 7d be 46 ad 69 3e
       0.16234551 -0.70063645 -0.24781378 0.22820005
0002b0 5d 1e da be 99 ab 29 3e cd 1b 10 3e 5c d6 e1 be
       -0.4260129 0.16569366 0.14073105 -0.44108856
0002c0 e6 e0 b2 bd 92 67 41 3e 31 94 c8 3d e3 73 1a 3e
       -0.08734302 0.18887165 0.0979389 0.1508327
0002d0 08 99 7a 3d 52 da 4d bf 2c ec e7 3d 3f b0 36 bf
       0.0611811 -0.80411255 0.11324343 -0.7136268
0002e0 63 1e e7 3d 8f 76 a9 ba a2 33 1c bd 35 a5 d1 3d
       0.11285093 -0.001292901 -0.03813518 0.10236589
0002f0 bf f8 79 bd b8 88 2e 3d fd de 60 bd 07 bf a7 3c
       -0.06102824 0.042610854 -0.05490016 0.020476831
000300 19 76 9a 3d c9 95 24 3d 12 93 0e 3e 48 dc d6 3d
       0.075420566 0.04018191 0.1392329 0.10491234
000310 f1 d1 1a 3e a0 6c 30 3d 30 2e a2 be 79 e1 51 bf
       0.15119149 0.043072343 -0.31675863 -0.8198467
000320 5b 45 ef be 91 bd 1b bf 01 4f 64 bf 12 c8 49 bf
       -0.46732602 -0.6083613 -0.8918305 -0.7882091
000330 f0 65 cc 3d f7 70 a3 3d d7 36 13 3e ae 94 8a bc
       0.099803805 0.07980531 0.14376388 -0.0169166
000340 65 27 65 3d b1 40 b9 be 76 7e 17 bf 73 e7 33 3d
       0.055945773 -0.36182168 -0.5917734 0.0439219
000350 a0 9d 2a bf 95 e2 80 be 50 cd c0 bd 45 1c a7 3c
       -0.66646767 -0.25172868 -0.0941416 0.020399222
000360 11 4e 0f 3d aa 24 0f bf 68 4e fa 3d e3 8f 91 3d
       0.03498656 -0.5591532 0.12221986 0.07107522
000370 0b f7 2b be e0 a5 f9 3d 85 c6 2f be 03 51 a2 3d
       -0.16793458 0.12189841 -0.17165573 0.07925608
000380 06 76 57 bd 0b 8a 00 3e 74 a9 33 bf 2f cf 5e bf
       -0.05260279 0.12552659 -0.7018044 -0.8703489
000390 32 db 3e bf 8c aa 4c 3e d1 51 74 3e bc 74 8b bd
       -0.74553216 0.19986933 0.23859335 -0.06809375
0003a0 56 d6 ba 3d 3c f0 08 be 38 60 9b 3d cb b8 9e 3d
       0.091229126 -0.13372892 0.07586712 0.0775009
0003b0 7b 25 57 bf a8 57 c3 3d 14 b1 ca be 80 71 28 bf
       -0.84041566 0.095382035 -0.39588225 -0.6579819
0003c0 1c 0e e3 3c c5 97 11 bf fb c4 63 3e 89 79 c9 bd
       0.027716689 -0.56872207 0.22243111 -0.09837634
0003d0 4b dd 06 bf 0c 36 4d 3e 80 05 3f be ec 71 5e 3d
       -0.52681416 0.20040148 -0.18654442 0.054307863
0003e0 25 56 e9 3d 17 2c 5b 3d 8f 3a 15 3e 62 b5 24 3d
       0.11393384 0.053508844 0.1457312 0.040212043
0003f0 c8 de b8 3d 0c 28 07 be 80 16 58 3e f6 ac 81 3d
       0.09026867 -0.1319887 0.21102333 0.06331818

classifier_sub.3.bias f4 [8]
000000 a3 95 a0 3d 41 21 5a 3d 92 8c a0 3c 23 af 28 3d
       0.07841041 0.05325437 0.01959828 0.04118265
000010 18 e7 5e 3d 3f b2 83 be 26 75 41 3d 3b b9 58 3d
       0.054419607 -0.25721928 0.047230862 0.052911025

onnx::Conv_87 f4 [32, 3, 3]
000000 21 e4 d5 be 1e a1 60 bd 71 8c 81 be 83 93 93 be
       -0.4177561 -0.054841153 -0.2530246 -0.2882348
000010 1e 22 eb be 5e 99 76 3e 2f 7c f7 be 63 6a cb bd
       -0.45924467 0.24081942 -0.48336932 -0.09932401
000020 fe 7b 20 3e 5d 92 be be bb b4 1e 3f e0 63 a4 3d
       0.156723 -0.3722104 0.6199452 0.08026862
000030 03 9a 43 3e 16 81 08 3f da 85 e0 be c6 b5 a9 3e
       0.1910172 0.5332197 -0.4385212 0.33146495
000040 57 f9 04 bf 61 ef 91 3e 3a de d8 be 76 49 e8 3e
       -0.5194296 0.28502944 -0.42357045 0.45368546
000050 7f ba 5d 3e 36 6c af be d2 96 a8 be 2f ee c3 3e
       0.21653174 -0.34262246 -0.32927567 0.38267657
000060 a6 5d 43 3f ac a6 cf 3e 2d 20 0b 3e e1 80 0c be
       0.7631477 0.40556848 0.13586493 -0.13721038
000070 3c 36 1a 3f ae 3c 57 bf 43 90 d5 3e 78 ea bb be
       0.60239005 -0.84076965 0.41711625 -0.36702323
000080 f5 86 05 3f 0e 98 74 be 05 65 21 be 3c e3 f1 3e
       0.52159053 -0.2388613 -0.15761192 0.4724368
000090 79 15 98 3e 78 69 d4 bd 1e db 08 3f 22 c9 c6 be
       0.29703882 -0.10371679 0.53459346 -0.38825327
0000a0 c3 fb 12 3d d3 30 08 bf 93 63 84 bd 54 e0 04 3e
       0.03588463 -0.531995 -0.06464305 0.129762
0000b0 d8 6e 80 bd 51 33 14 3e cd 06 13 be 61 f8 c8 be
       -0.06271142 0.144727 -0.14358063 -0.39251998
0000c0 0b 93 a9 3e 06 63 95 3e c7 b2 8f 3e a6 47 c9 3e
       0.33119997 0.2917711 0.28066084 0.39312476
0000d0 82 b3 34 3e ba 41 df 3d ad d4 1e 3f ee 85 8c bd
       0.17646602 0.10901208 0.6204327 -0.068614826
0000e0 65 3b d0 be 79 c8 e3 be 73 5a c5 bd da 3b f4 3d
       -0.40670314 -0.44488886 -0.096363924 0.11925478
0000f0 6c 62 93 3d e3 6b 03 3f e7 6f 38 3e 94 10 08 bf
       0.07196507 0.513365 0.18011437 -0.53150296
000100 64 75 31 be 1e 56 34 be 27 57 fa 3e fc 4f 87 be
       -0.17329937 -0.17610976 0.48894617 -0.2642821
000110 26 ff d0 be af 19 e7 bd e5 15 9f be b0 bc 7d be
       -0.40819663 -0.11284196 -0.31071392 -0.2477901
000120 f4 33 f5 be 22 9c c8 3e 81 56 98 3e a1 3f 95 be
       -0.478912 0.3918162 0.29753497 -0.29150108
000130 b9 c3 e6 be 5f e9 af 3d fb ac cb 3e 45 f1 b6 be
       -0.450712 0.08589434 0.3978041 -0.3573095
000140 a1 dd 4b be 6e 6e e6 3e a4 c5 82 be 4f 29 c4 3d
       -0.19908763 0.45006126 -0.25541413 0.095781915
000150 ed 08 bb be b2 6d 1a 3f 81 7c 82 3e 88 09 f8 be
       -0.36530247 0.6032363 0.25485614 -0.48444772
000160 80 cc 9f be 12 c6 96 3e 39 02 56 3e 49 12 9c 3e
       -0.3121071 0.2944799 0.20899285 0.304827
000170 38 2e 27 bf cf fc 32 be 2b 38 f3 3e f7 8f 4d bf
       -0.653049 -0.17479251 0.4750379 -0.802978
000180 da 3f fb bd 3d c5 ee 3e 22 a5 90 3e e0 a0 b5 3c
       -0.12268038 0.46634856 0.28250986 0.022171438
000190 0d 16 73 3e da d1 a6 3e 1c 48 a5 bd 4e 36 54 3c
       0.2373888 0.3258198 -0.080703944 0.0129524
0001a0 86 8b 11 3f b8 e5 10 3f e8 52 a2 3e 96 ae 96 be
       0.5685352 0.56600523 0.31703877 -0.29430073
0001b0 e4 39 a9 be 8a 8d a9 be d8 51 8f bb 63 a0 f3 bd
       -0.3305198 -0.33115798 -0.00437377 -0.11895826
0001c0 df 09 f3 bd cd df 94 bc 90 2c e4 3e e9 49 d7 3e
       -0.11867117 -0.018173123 0.44565248 0.42048576
0001d0 13 69 b2 bd 0a 84 50 bd ec ff d6 3e f1 e4 0e 3e
       -0.087114476 -0.050907172 0.41992128 0.13954522
0001e0 02 77 e9 be 25 58 fa 3d b4 74 19 3f 8d 09 a3 be
       -0.45598608 0.122238435 0.599437 -0.31843224
0001f0 eb b5 87 be cc b8 3c 3e c3 43 0d bf cc e5 f4 be
       -0.2650598 0.1842987 -0.5518152 -0.4783157
000200 b7 1c ec 3e 42 00 fe bd 4b 1d 94 3e 0b f4 8b 3d
       0.46115658 -0.12402393 0.289286 0.06833657
000210 5c 19 22 3e c4 d9 e9 be 1a 97 49 be f6 2b a7 3e
       0.15829986 -0.45673954 -0.19686547 0.32650727
000220 c5 b3 69 3e 5c b0 06 be 33 01 15 3e b1 88 0f 3f
       0.22822483 -0.13153213 0.14551239 0.5606795
000230 0c 05 25 bf 56 9a 04 3f 63 15 b3 be 84 b3 65 be
       -0.64460826 0.51798 -0.34977254 -0.22431761
000240 31 ba 86 3e d6 7d f4 be 32 dc a7 bd 94 00 02 3f
       0.26313928 -0.47752255 -0.08196296 0.5078213
000250 53 e1 72 3e f8 63 71 be cc e0 49 be 10 a1 15 3f
       0.23718767 -0.23573291 -0.1971466 0.58448887
000260 7c a2 7c 3e ed 73 68 3e 64 69 eb be d3 3d 21 3e
       0.24671358 0.22700472 -0.45978844 0.1574624
000270 a4 10 35 3c 71 5a 1b 3e 20 4e 1b 3f c9 96 c1 3e
       0.011051331 0.1517122 0.60666084 0.37810352
000280 ea 4a ec 3e a3 65 46 3e 58 fc 81 3e 53 6c ce bc
       0.46150905 0.19374709 0.25387836 -0.025198137
000290 6c 0a ba be 80 7e c8 be 46 b2 77 be a1 12 8a be
       -0.36336076 -0.39159012 -0.241891 -0.26967338
0002a0 58 68 a3 3e 5a 77 3a 3e 05 2d 00 be 9c 43 9a be
       0.31915545 0.18209592 -0.12517174 -0.30129707
0002b0 6d 26 de 3e c2 6e 93 3e 9f 26 9f 3e ea de b2 3e
       0.43388692 0.2879544 0.31084153 0.34935695
0002c0 84 e9 07 be 98 77 94 be ec 26 c1 be e4 d8 1b be
       -0.13272673 -0.28997493 -0.37725008 -0.15219456
0002d0 49 f2 17 bf f4 31 32 3f ad e7 8f 3d 5a 5a aa 3e
       -0.5935407 0.6960747 0.070266105 0.33272058
0002e0 3d ec ef be 79 39 0d be 84 78 f0 3d b6 fe 5a be
       -0.46859923 -0.13791455 0.117417365 -0.21386227
0002f0 fd 49 31 3f 7d ef de be 14 90 7a 3e 78 4d 0e bf
       0.6925352 -0.4354209 0.24469024 -0.5558696
000300 26 78 6f be 26 0d 37 be 0a ef cb 3e 16 5b e0 3e
       -0.23385677 -0.1787611 0.3983081 0.43819493
000310 0a e8 46 3e 6e 7e 83 be dd f5 06 be 6a 97 d2 3e
       0.19424453 -0.25682396 -0.13179727 0.41131145
000320 4c 69 58 bd dc 38 ee 3e 7f a5 9a be 8b 65 e1 3e
       -0.052834794 0.46527755 -0.30204388 0.44022784
000330 55 40 39 3f 7c fd df 3e a6 08 cc 3e 35 46 4a 3e
       0.7236379 0.4374808 0.39850348 0.19753344
000340 ac 01 c4 bd 38 75 3f bd 45 d5 a0 3e 8a 13 2c bd
       -0.095706314 -0.046742648 0.31412712 -0.04201082
000350 ef 63 15 3d 79 7b 03 3f bd be 07 bf 70 91 08 bf
       0.036472257 0.5136028 -0.5302542 -0.5334692
000360 25 7f a3 be 48 24 a4 3e ca ea 03 be 4b ca b6 3e
       -0.3193294 0.3205893 -0.12882534 0.35701212
000370 c2 27 b0 be bc 99 31 bf cf 7f c2 3d 81 7c da 3e
       -0.34405333 -0.69375205 0.09497034 0.42673114
000380 c3 af b2 be b2 7a 39 3e 10 2c 17 3e 02 a1 64 3e
       -0.3489972 0.18113211 0.14762902 0.22327045
000390 fc f9 b9 be 83 e7 ba be 56 69 b6 3d d9 6d a6 be
       -0.36323535 -0.36504754 0.0890681 -0.32505682
0003a0 d9 91 a1 be 26 4d 82 3e 72 5b ad 3e ee b6 4c bf
       -0.31556585 0.25449485 0.3385883 -0.7996663
0003b0 18 16 08 3f e2 24 54 bd f5 a0 11 3f 5d 53 15 bf
       0.5315871 -0.051792987 0.56886226 -0.5833033
0003c0 bb b8 27 bf f0 f6 c9 be 79 ce ac bd ee af f8 be
       -0.6551625 -0.3944621 -0.08437819 -0.48571724
0003d0 66 29 2c be d3 e4 94 be 8c 81 33 be 2a 84 88 bb
       -0.16812667 -0.2908083 -0.17529887 -0.004166146
0003e0 a2 75 e7 3d ad f3 1b bf 84 a1 98 3e 04 b9 e1 be
       0.113017336 -0.60918695 0.29810727 -0.44086468
0003f0 77 10 bf 3e c1 14 00 3f 4f 35 b9 bc ea 63 34 3d
       0.3731725 0.5003167 -0.022608427 0.044040598

onnx::Conv_88 f4 [32]
000000 06 6a 21 bc d4 b2 3e 3d 26 15 65 3c ec 12 be bb
       -0.009851938 0.046557263 0.013982093 -0.0058005955
000010 1a c9 7e 3d de 17 05 be 24 cf f8 3d 36 64 c8 3c
       0.062203504 -0.12997386 0.12148884 0.024461847
000020 83 8e 7a bc 38 d5 85 bd 67 21 45 3d 68 da f6 bc
       -0.0152927665 -0.06534809 0.048127558 -0.030133441
000030 2a e0 89 bd d0 bb 06 be 13 59 a4 bd 84 79 36 3e
       -0.06732209 -0.13157582 -0.08024802 0.17819792
000040 58 29 3e bc c6 da 40 3e 7c ab d3 3b 30 cd 00 3d
       -0.011606537 0.18833455 0.0064596515 0.031445682
000050 1c 9b 24 3e 7a 5d 50 bc e5 b8 b5 3d d1 cb 45 3e
       0.16074795 -0.012717599 0.088731565 0.19316031
000060 6a 31 d3 3e 84 34 f4 3d fa 59 61 bd 0a 09 cf bd
       0.41248637 0.11924079 -0.05501745 -0.10109146
000070 8f 74 00 be 13 44 a6 bd 64 93 32 3c 72 50 5a bc
       -0.12544464 -0.08118453 0.0108993985 -0.013324844

onnx::Conv_90 f4 [64, 32, 3]
000000 a8 66 e4 3c 6c f4 c2 3d cd be 0a 3d da b1 72 bd
       0.027880982 0.09519276 0.033873368 -0.059251644
000010 a1 d6 5a 3d 25 cd 61 bd 19 41 9e 3c 4b ce 70 bd
       0.053427342 -0.05512728 0.01931815 -0.058790486
000020 28 47 d4 bc f2 c9 1c 3e ce aa 69 bc 09 e0 49 3d
       -0.025912836 0.15311411 -0.014261914 0.049285922
000030 1b 46 11 bd 9d 26 b0 bd 37 fa 77 bd 05 7d 2a be
       -0.03546725 -0.08601115 -0.060541358 -0.16649254
000040 45 a7 39 3e 48 39 3a 3e cb d5 f7 bd 5e 9d e9 bd
       0.18130215 0.18185914 -0.12101325 -0.114069685
000050 86 b8 97 3d 92 68 30 bd 2c 51 24 3c 31 5d c5 3d
       0.07408242 -0.043068476 0.0100291185 0.096369155
000060 50 48 a8 bd 38 33 3d bd 80 c4 45 be ab ca be bc
       -0.082169175 -0.046191424 -0.1931324 -0.023289999
000070 15 46 bf bd af d0 95 3c 14 7c 1d be 04 11 10 3c
       -0.09339539 0.018287985 -0.15379363 0.008793119
000080 90 9f 42 3d 10 1d 13 be 0a bd 8b bd 09 a7 03 3e
       0.047515452 -0.14366555 -0.06823166 0.12856688
000090 1f 5f 22 bd 1f b7 4e 3c f9 1b 2c bd f1 5e bf bd
       -0.039641496 0.012616902 -0.042018864 -0.093442805
0000a0 8a 53 26 bc da 41 72 bd 65 2f 1f bd 71 b7 23 3e
       -0.010151753 -0.059144832 -0.03886356 0.15987946
0000b0 51 59 f6 bd 8f 8a f7 3c d6 0a bc bd da fe c5 bd
       -0.120287545 0.030217437 -0.09181754 -0.0966775
0000c0 a9 e2 c9 3d 5d d6 41 3d 52 32 70 3e e5 f2 78 3d
       0.09857685 0.047323573 0.23456696 0.060778517
0000d0 74 9a e6 3d 8c aa 4a be b5 ce 10 be e6 60 49 bc
       0.11259928 -0.19791621 -0.14141352 -0.012291169
0000e0 59 8e bc 3d e9 31 6b 3d 11 db 42 be cb c4 fc 3d
       0.09206838 0.057420645 -0.1902888 0.12342223
0000f0 ee 43 38 be f5 a8 4d bd 38 49 25 be d3 4f 4f bd
       -0.17994663 -0.050209958 -0.16141212 -0.050613236
000100 34 09 dd 3d c9 8f b2 3d 0c 61 d2 3c 96 7f 90 3d
       0.10792771 0.08718831 0.025681041 0.07055585
000110 4c ba 1d 3d a8 92 72 bd b9 17 33 3e 00 ac 2d 3e
       0.038507745 -0.059221894 0.17489518 0.16960144
000120 fe 1d 20 3d b1 14 4c be a3 5b 3f 3d 94 d4 a5 3d
       0.039091103 -0.19929768 0.04671825 0.08097187
000130 3e ed aa bc 79 87 34 be 0e 9a ee bd 78 ed 91 3b
       -0.020865079 -0.17629804 -0.11650477 0.0044533573
000140 86 87 8f 3d 88 4b 39 be 89 bc 48 3d bb fc 61 3d
       0.07008271 -0.18095219 0.049007926 0.055172663
000150 9b 0c 96 3d c7 92 87 3d ac 9a 16 be 5f 8e e3 bb
       0.07326623 0.066197924 -0.1470744 -0.006944462
000160 1c 40 2d bd 41 17 9a bd 5b 13 e1 3b e2 7f 0b 3e
       -0.042297468 -0.075239666 0.0068687624 0.13623002
000170 66 f4 1b 3d 5f fc b5 bd f9 0b 20 bd b5 ff b3 bd
       0.038074873 -0.088860266 -0.039073918 -0.087890066
000180 e8 c3 c0 bd 50 ee 45 bd 1e f4 d6 3d 17 57 88 bd
       -0.09412366 -0.048322976 0.104957804 -0.06657236
000190 6b 74 2d bd 0d b1 47 3d 17 05 e8 3d 41 05 d5 bd
       -0.042347353 0.048752833 0.11329096 -0.10401393
0001a0 d3 aa 51 bb 06 94 56 3d ab cb c8 bd 72 c3 d5 3d
       -0.0031992688 0.05238726 -0.098044716 0.10437669
0001b0 84 33 3b be 03 d1 d5 bd 8c 54 54 3e 37 b8 94 bd
       -0.1828137 -0.104402564 0.20735377 -0.07261699
0001c0 eb 9a 48 bc b5 c8 29 3e 6a a8 dd bd b5 b6 cf bd
       -0.012243967 0.1658047 -0.10823138 -0.101422705
0001d0 3b 86 22 3e d7 7b 2e bd 8e 32 24 3e a3 38 3f 3d
       0.15871517 -0.04259857 0.1603491 0.046684872
0001e0 eb 12 6f ba 6b 24 84 be 9f 7b 46 bd 0c 9b b9 bd
       -0.00091199455 -0.25809035 -0.048457738 -0.09062776
0001f0 ca f1 4c be fc 4c 47 bc a5 2f 27 3b 79 8a 1f be
       -0.2001411 -0.012164351 0.0025510576 -0.15580167
000200 e4 ac 65 be 7e c3 e6 bc 25 f7 21 be e9 e9 c0 3d
       -0.22429234 -0.02816939 -0.15816934 0.09419615
000210 d9 5a ac 3d 95 85 22 3e 8e bf 0c bd 5d f6 c5 bd
       0.08415765 0.1587127 -0.03436237 -0.09666131
000220 1a 3a 51 be 8b 20 d5 bd dd d2 43 bd 2e ae fe bb
       -0.2043232 -0.10406598 -0.047808517 -0.0077722287
000230 7a 25 28 3d d5 e9 08 3d 60 17 b4 bc ad a8 9b bd
       0.041051365 0.033426125 -0.021983802 -0.07600532
000240 aa 50 46 bb c4 69 fa bd d7 f9 95 bd 71 ef ae 3d
       -0.0030260482 -0.122272044 -0.07323044 0.085417636
000250 89 af ba bd 46 e4 1e 3e 70 4c 43 be bd 03 78 3d
       -0.09115512 0.15516767 -0.19072127 0.06055044
000260 07 8e 8c bd 42 34 9c 3b 35 2f 21 3e 59 b1 f5 3d
       -0.06863027 0.004766972 0.15740664 0.11996717
000270 c9 ef 97 3c c3 cf 66 3d 1e 11 3a be f1 09 da bb
       0.018546956 0.05635048 -0.18170592 -0.006654017
000280 c3 98 99 bc 91 4e 55 bd 45 4a c7 3d c8 28 29 3e
       -0.0187496 -0.05207688 0.09730963 0.16519463
000290 f8 be 63 bd 33 8b 3c be 8a 83 e5 bd 4f 8f 55 be
       -0.055602044 -0.18412475 -0.1120673 -0.20855449
0002a0 9b e0 9c bd 52 4c 45 3e bd 63 3e be 4e f5 55 3d
       -0.076600276 0.19267395 -0.18592735 0.052235894
0002b0 22 09 03 3e 6a a1 84 bd ac a8 24 be 6f af 67 3e
       0.12796453 -0.064761 -0.16079968 0.22625516
0002c0 eb 4d 28 3d cf fe a1 3d 4a 16 fe 3d 8c 1b e3 3d
       0.041089933 0.07909929 0.12406595 0.110892385
0002d0 fd 06 1d bc 8c 7f f2 3d f8 b8 1d be 4f 90 db 3d
       -0.009584186 0.11840734 -0.15402591 0.10720884
0002e0 31 ff 95 bd 71 fb 12 3d 2e 16 09 3d 42 3f 83 3d
       -0.073240645 0.035884324 0.033468418 0.0640855
0002f0 aa 16 c5 3d 41 a5 f7 bd 16 5f 9c 3d 90 4d a5 bc
       0.096234635 -0.120920666 0.07635324 -0.020178586
000300 56 db 80 3e c7 0e e4 3d a6 f7 31 be 13 fe a0 bd
       0.2516734 0.11135631 -0.17379627 -0.07860961
000310 5f 64 2a 3e b7 02 25 bd b7 20 95 bd 4f e0 e2 3d
       0.16639851 -0.040285792 -0.072816305 0.1107794
000320 c5 88 98 bd bf 29 33 be 9a 74 52 3c 0b fc c4 3d
       -0.07447962 -0.17496394 0.012845183 0.09618386
000330 3b b9 86 bd 78 9a 6a bd 5b fe df 3c e7 59 f8 3d
       -0.06578299 -0.05727622 0.027342966 0.121265225
000340 cf d6 0c bc 2b 56 95 3d 94 04 5c 3b 50 41 23 3c
       -0.008596136 0.07291826 0.0033572065 0.009964302
000350 06 ec 99 be 37 17 0b be 32 9f fe 3d c6 52 cb bd
       -0.30062884 -0.13583075 0.12432708 -0.09927897
000360 0a 7e 84 bd 07 e4 55 be 4a c4 04 be 05 f0 c1 3d
       -0.064693525 -0.20887767 -0.12965503 0.09469608
000370 28 35 4c 3c 95 e5 28 3e 39 6c b5 3d 57 df 38 be
       0.012463845 0.16493829 0.088585325 -0.18053947
000380 80 0f 91 be d5 1f d3 bd b1 74 14 3d d1 fb 2a 3e
       -0.28332138 -0.10308806 0.036244098 0.16697623
000390 5a 37 f7 3c d3 79 a7 bb b7 4d c6 3d 31 e8 1e be
       0.03017776 -0.005110958 0.09682792 -0.15518261
0003a0 31 2d cb ba 9b b2 ac bc 84 e0 94 3d 6c 5a e3 bc
       -0.0015501139 -0.02108126 0.072693855 -0.027753077
0003b0 f9 b6 48 3d 1a 75 14 bd c4 fd 2c 3e 5b 49 58 be
       0.04900262 -0.03624449 0.16893679 -0.21121733
0003c0 43 74 d5 3c 6e ff 56 be 0b 6e 34 3c df 30 07 be
       0.026056414 -0.20995876 0.011012564 -0.13202237
0003d0 08 61 25 3e 90 b6 2b 3e 97 18 58 bd 42 d7 5d 3e
       0.16150296 0.16768861 -0.052757826 0.21664146
0003e0 f7 b3 9e be 60 bd a1 3d c0 6d 55 3d 68 25 30 be
       -0.30996677 0.078974485 0.05210662 -0.1720177
0003f0 1b 4b 0c 3d b8 ad 60 3d 3a ac 86 bd f2 ec 6f be
       0.034251314 0.05485317 -0.06575818 -0.23430231

onnx::Conv_91 f4 [64]
000000 2a 22 e5 3d 7c cc 56 3e c9 58 a8 3c 36 18 3f 3e
       0.11188157 0.20976442 0.020550149 0.1866158
000010 db f9 3a 3e f2 d5 85 be 79 de 3b 3e 6e 39 8b be
       0.18259375 -0.2613979 0.18346585 -0.27192253
000020 51 5e 3c 3e a1 9c 7a 3e ca 91 76 3e 92 6f 30 3e
       0.18395354 0.24473812 0.24079052 0.1723006
000030 9c 5e 24 be 0a 0b df bd b0 f5 28 3e fe 01 52 3e
       -0.16051716 -0.108907774 0.16499972 0.20508572
000040 1e 1c 8e 3e a8 34 82 be 7c 58 6d 3e c0 91 a3 3d
       0.27755827 -0.254308 0.23178285 0.07986784
000050 98 5e 4b 3c 91 46 19 3d 6c 48 17 be 7a 5c 22 3e
       0.01241269 0.037420813 -0.1477372 0.1585559
000060 4e 4e 0e bd 69 a0 2a 3e 6f 9f ae 3d b4 db 84 3d
       -0.034742646 0.16662754 0.08526503 0.064872175
000070 0e c6 f0 3d 03 57 24 3e 2b 0f b2 3e b5 83 5b 3e
       0.11756526 0.16048817 0.34777197 0.21436961
000080 e2 42 bf 3c dd d6 de 3c b1 e1 27 3e 1e 23 ea bd
       0.023347322 0.027202064 0.16394688 -0.11432479
000090 89 e8 1f 3e 80 0a 2f ba db 9e 1d be 12 f5 c4 3c
       0.15616049 -0.0006677285 -0.1539263 0.02404264
0000a0 45 9d 6f 3d 57 ff 0b 3e 9b f9 ce 3e ab ad fa 3d
       0.058499593 0.13671623 0.4042481 0.12240156
0000b0 e4 b5 2e be 2f 7b fd 3d c1 51 61 3e ab d4 8b 3b
       -0.17061573 0.12377011 0.22003843 0.0042672954
0000c0 10 16 51 3e be ac 3d be f8 6e c5 3d fb 7c 57 3e
       0.20418572 -0.18522927 0.09640306 0.2104377
0000d0 9a d6 96 3d 6d db 24 3e 8f a9 b2 3d 80 a7 b1 3c
       0.07365151 0.1609933 0.08723747 0.021686316
0000e0 5b c9 9c 3d c3 af 3d bd 40 ff 18 3e 6c 1b 13 3e
       0.07655593 -0.046310198 0.1494112 0.1436593
0000f0 4e c3 68 3d 36 83 68 be c9 9b 03 3f d0 8a bf bb
       0.056826882 -0.22706303 0.51409584 -0.005845405
