pth_tflite_converter/model/pth/gesture_transformer_epoch409.pth (torch, 540047 bytes, 43 tensors)

accel_conv.0.weight f4 [32, 3, 3]
000000 b5 46 89 be 05 2b 10 bd 26 4a 26 be 17 6e 3d be
       -0.26811758 -0.035197277 -0.16239223 -0.18499027
000010 d5 e8 96 be b0 44 1e 3e 42 d6 9e be 8e 8d 82 bd
       -0.29474512 0.1545589 -0.3102284 -0.06374656
000020 c0 ff cd 3d 16 df 07 be eb 4d 62 3e dc 68 ea 3c
       0.10058546 -0.13268694 0.22100036 0.028614454
000030 23 75 8b 3d 6a a5 42 3e d5 13 20 be d6 fe f1 3d
       0.068094514 0.19008413 -0.15632565 0.11816184
000040 ba 9c 3d be 0a 18 d0 3d 34 43 26 be 5c 15 32 3e
       -0.18516818 0.10160835 -0.16236573 0.1739096
000050 20 fd a9 3d 01 7d 06 be d4 3f 01 be e9 35 16 3e
       0.08300233 -0.13133623 -0.12622005 0.14669003
000060 1a c7 95 3e 3e 32 1f 3e 7a 52 55 3d f1 b3 24 bd
       0.29253465 0.1554651 0.05208061 -0.040210668
000070 ba c5 34 3e e3 4e 7c be ae 58 fa 3d 09 48 dc bd
       0.17653552 -0.24639468 0.122239456 -0.10755927
000080 6c 86 1c 3e 55 5c 8f bd 36 31 3d bd 42 c6 0d 3e
       0.15285653 -0.07000033 -0.04618951 0.1384516
000090 80 be 4d 3e d4 ad 8f bd ad 24 b9 3e 42 76 86 be
       0.20092201 -0.07015577 0.36160794 -0.262621
0000a0 18 d8 c6 3c 4c 3e b8 be a7 19 33 bd 6d c2 b3 3d
       0.024272963 -0.3598503 -0.043725636 0.08777318
0000b0 99 bf 2d bd ef d6 dc 3d 20 17 db bd ac bc 95 be
       -0.04241905 0.10783183 -0.1069777 -0.29245508
0000c0 95 b0 7c 3e 81 9b 5e 3e 7e 21 56 3e bc f7 95 3e
       0.24676736 0.21739008 0.20911214 0.2929057
0000d0 99 a2 06 3e 8f 57 a6 3d b0 eb 95 3e dc a3 04 bd
       0.13147964 0.08122169 0.29281378 -0.03238283
0000e0 f3 8c 44 be 41 01 57 be 3c 48 3a bd 62 88 66 3d
       -0.19194393 -0.20996572 -0.045479044 0.05628241
0000f0 d1 1d 0b 3d 0e 19 78 3e 2e 17 ae 3d bd 27 62 be
       0.033963982 0.24228308 0.08500515 -0.22085471
000100 6e 7a 93 bd b1 de 95 bd 19 0c 50 3e a0 e7 e0 bd
       -0.07201086 -0.07317866 0.20317115 -0.10981679
000110 2f b0 2d be c0 0e 40 bd 8e 35 04 be bb de d2 bd
       -0.1696174 -0.046889067 -0.12911054 -0.10296389
000120 f6 4b 97 be 32 90 77 3e 3a fe 3b 3e 3e 2e 38 be
       -0.2955014 0.241761 0.18358698 -0.1798639
000130 4a 63 8e be 92 15 59 3d bd 58 7b 3e be c2 61 be
       -0.27810127 0.052999087 0.2454557 -0.22046944
000140 c6 94 fb bd 3a 28 81 3e 8a 98 12 be c2 e5 5b 3d
       -0.12284236 0.25226003 -0.14316002 0.05368591
000150 aa aa 51 be 65 1d ad 3e 8d 46 12 3e 77 06 8b be
       -0.2047526 0.3381149 0.14284725 -0.2715337
000160 8e 22 33 be 8f 04 29 3e 8e b2 a5 3d af ad f1 3d
       -0.1749365 0.16505645 0.08090697 0.11800706
000170 c6 70 81 be 08 95 8a bd 66 50 3c 3e 6a 28 9f be
       -0.25281352 -0.06766707 0.18390045 -0.3108552
000180 06 88 42 bd 93 de 38 3e 0c fc df 3d 6e 60 35 3c
       -0.047493003 0.18053655 0.10936746 0.011070354
000190 cc bf f2 3d a9 96 26 3e 77 0d 25 bd 02 eb d3 3b
       0.118529886 0.1626841 -0.040296044 0.006467224
0001a0 e1 57 91 3e 4e b2 90 3e 4f 19 22 3e 1f 79 16 be
       0.2838736 0.28261036 0.15829967 -0.14694642
0001b0 8f 1e 8a be d5 62 8a be 33 f3 69 bb f9 d7 c6 bd
       -0.2697644 -0.27028528 -0.0035697937 -0.09709162
0001c0 20 5d c6 bd 5a 04 73 bc 4c 3b ba 3e ff b6 af 3e
       -0.09685731 -0.01483258 0.36373365 0.34319302
0001d0 8e 9d 91 bd bd 11 f0 bc ce 88 77 3e 87 84 a4 3d
       -0.07110129 -0.029305333 0.2417328 0.0803309
0001e0 9b 65 86 be 1f 1d 90 3d 70 ad b0 3e 76 b5 3b be
       -0.26249394 0.070368044 0.34507322 -0.1833094
0001f0 37 3f 1c be b3 47 d9 3d f7 72 9c be 58 9c 87 be
       -0.1525849 0.10609379 -0.3055646 -0.26486468
000200 ed be 82 3e d3 a6 8c bd fc 08 24 3e 29 ff 1a 3d
       0.2553629 -0.06867757 0.16019052 0.037840996
000210 de 85 b3 3d 56 7e 81 be 4b 42 df bd 1e dc 1b 3e
       0.087657675 -0.252917 -0.10901316 0.15220687
000220 72 e3 d9 3d 67 26 7b bd 0e ec 8a 3d 50 d2 85 3e
       0.10639085 -0.06131592 0.06783305 0.26137018
000230 7b da 99 be a0 42 77 3e 33 f7 26 be 80 28 d6 bd
       -0.300495 0.24146509 -0.16305237 -0.104569435
000240 ba 03 16 3e e4 1d 88 be 2a e8 3a bd dc c0 90 3e
       0.14649859 -0.26585305 -0.045631565 0.2827214
000250 3b 38 07 3e eb 63 06 be ea c8 e0 bd 76 9b a6 3e
       0.13205044 -0.13124053 -0.10975821 0.32540482
000260 7c a6 0c 3e 9d 85 00 3e 69 28 82 be 93 4c b2 3d
       0.13735384 0.1255097 -0.25421456 0.087060116
000270 41 38 c8 3b ba c9 ab 3d 1b bc ab 3e 92 11 56 3e
       0.0061102216 0.08388086 0.3354195 0.2090514
000280 1a a5 82 3e a2 62 db 3d ff 4b 35 3e 2a f4 8f bc
       0.25516587 0.10712172 0.17704771 -0.017572481
000290 58 bd 81 be ad d1 8b be 90 bc 2c be 83 93 40 be
       -0.2533977 -0.27308407 -0.16868806 -0.18806271
0002a0 6e e9 63 3e 4f 09 02 3e c7 c5 b2 bd 47 92 6b be
       0.22257015 0.12698863 -0.08729129 -0.23005019
0002b0 6f 9e a9 3e ab 23 61 3e a8 08 73 3e dd 92 88 3e
       0.33128688 0.21986263 0.23733771 0.26674548
0002c0 fb 8b cf bd 16 b8 62 be 59 7a 93 be 2b fd ed bd
       -0.10134121 -0.22140536 -0.2880428 -0.116205536
0002d0 11 4a 84 be 6c 24 9b 3e 8d 93 fa 3c 8a 50 14 3e
       -0.25837758 0.30301225 0.030587936 0.14483848
0002e0 63 e2 50 be b2 e8 75 bd 84 5c 51 3d f4 a9 be bd
       -0.2039886 -0.06003637 0.05111362 -0.0930976
0002f0 77 5a 9a 3e 48 16 33 be c9 47 c9 3d 8c a0 64 be
       0.30147144 -0.17488968 0.09828145 -0.22326869
000300 6f 5e c0 bd 2e 0c 93 bd 9b d2 23 3e 5d 3a 34 3e
       -0.09393012 -0.071800575 0.15998308 0.17600389
000310 be c8 9f 3d f3 42 d3 bd fb 93 92 bd 37 b8 64 3e
       0.078019604 -0.10315504 -0.07157131 0.22335897
000320 59 0a eb bc 47 5d 81 3e 70 f5 27 be 9b cc 74 3e
       -0.028691458 0.25266477 -0.1640222 0.23906176
000330 b6 32 c9 3e 8d 45 73 3e f0 98 5d 3e 2d 41 d9 3d
       0.39296502 0.23757 0.21640372 0.106081344
000340 d0 85 52 bd 1e a3 cd bc 8c be 2c 3e fb d1 b8 bc
       -0.051397145 -0.025102194 0.16869563 -0.022561064
000350 44 74 a0 3c 48 38 8d 3e 5d cc 91 be ab ae 92 be
       0.01958669 0.27582002 -0.2847623 -0.28648886
000360 d7 e3 02 be 0b 68 03 3e 8c 37 53 bd f5 55 12 3e
       -0.12782227 0.12832658 -0.051566646 0.14290603
000370 2b 06 0d be 5c 2e 8e be ab b5 1b 3d b5 e9 2e 3e
       -0.13771884 -0.27769744 0.03801505 0.1708134
000380 f0 0c 0f be 7a ec 33 3e e7 a4 12 3e ed c7 5d 3e
       -0.13969779 0.17570677 0.14320718 0.21658297
000390 f4 67 b4 be 5d 4e b5 be a4 f2 b0 3d b3 71 a1 be
       -0.3523556 -0.3541135 0.0864003 -0.31532058
0003a0 f6 ba 9c be 0c cc 7c 3e 00 ad 14 3e 96 91 af be
       -0.3061139 0.24687213 0.1451912 -0.3429076
0003b0 2a 6c 69 3e c1 f0 b5 bc 4b ca 79 3e d0 10 80 be
       0.22795168 -0.022209527 0.24393575 -0.25012827
0003c0 b1 d7 8f be d3 35 2d be 19 34 14 bd 50 55 89 be
       -0.28094247 -0.16915064 -0.036182497 -0.268229
0003d0 8f 25 be bd b9 72 24 be 1e 42 c6 bd 0c c7 16 bb
       -0.092845075 -0.16059388 -0.096805796 -0.0023006825
0003e0 9b a3 7f 3d 55 3e ac be 5b 93 28 3e 91 4d 79 be
       0.062411886 -0.33641306 0.16462462 -0.24345995
0003f0 41 a0 76 3e c1 53 a5 3e 24 11 6f bc 13 d9 e8 3c
       0.2408457 0.32290462 -0.014591489 0.028423822

accel_conv.0.bias f4 [32]
000000 8d 7c 02 3e 49 58 06 bd 45 03 2a be 63 e1 bc bd
       0.12742825 -0.03279904 -0.1660281 -0.092226766
000010 f2 71 62 3c 64 68 65 3e fa 1b 11 bd c7 4a 02 be
       0.013821112 0.22403103 -0.03542707 -0.12723838
000020 5a e3 bc bc 62 00 8e 3d bc 75 7d 3e fd d1 61 3e
       -0.023057628 0.06933667 0.24751943 0.2205276
000030 96 d2 65 bc 68 58 3c 3d 90 d8 9d 3e a7 42 12 3e
       -0.014027258 0.04598275 0.30829287 0.14283238
000040 2a bb 2d bd 8b 4e 3b 3e eb 39 01 3e 90 11 df bd
       -0.04241482 0.1829168 0.1261975 -0.10892022
000050 2a 5b 33 3e 29 a3 bb b9 0c 8c 2f be 8b d6 3b bd
       0.17515245 -0.00035788983 -0.17143267 -0.0458589
000060 b6 19 a5 3e 87 7e 46 3d f6 9a 97 be 64 7c 40 3e
       0.32246178 0.04846051 -0.29610413 0.18797451
000070 6c 26 17 3d df 41 1e 3e 9c 5f 33 bd 02 67 f2 3d
       0.036901876 0.15454815 -0.043792352 0.118360534

accel_conv.1.weight f4 [32]
000000 7a 4d 7b 3f c4 d9 7e 3f 5b a2 88 3f 2f 1d 7a 3f
       0.98165095 0.99551034 1.0674547 0.9770078
000010 68 6a 78 3f 43 bd 7d 3f 3a 0b 80 3f 59 69 76 3f
       0.97037363 0.99116915 1.0003426 0.962545
000020 73 43 81 3f 5b 6b 82 3f ec 9c 83 3f 4f e8 81 3f
       1.0098709 1.0189012 1.0282264 1.014902
000030 3e 48 7c 3f 3e 5a 76 3f 18 a7 81 3f 1e 02 7a 3f
       0.9854773 0.9623145 1.0129118 0.9765948
000040 ac b0 81 3f 25 68 80 3f ac f5 7b 3f 94 ab 7e 3f
       1.0132041 1.0031782 0.9842174 0.9948056
000050 55 8a 80 3f 7f 08 7a 3f 09 96 80 3f 27 da 82 3f
       1.0042216 0.97669214 1.0045787 1.0222825
000060 e2 5d 85 3f 27 d7 7a 3f bd b5 75 3f 09 f2 82 3f
       1.0419276 0.97984546 0.95980436 1.0230113
000070 91 4f 84 3f f3 c4 7e 3f 5e be 87 3f da 38 86 3f
       1.0336782 0.9951927 1.060497 1.04861

accel_conv.1.bias f4 [32]
000000 dd 98 21 bc 93 cf 3d 3d b3 40 77 3c b2 14 c8 bb
       -0.009863106 0.046340536 0.015091109 -0.0061059827
000010 df ee 7f 3d 2c f9 04 be 93 bd f9 3d 2e 29 c4 3c
       0.062483665 -0.12985677 0.121943615 0.023945417
000020 20 cb 77 bc 1a ca 86 bd 8f 03 47 3d 48 70 f5 bc
       -0.015124112 -0.065815166 0.048587378 -0.029960766
000030 ee 53 88 bd b8 44 07 be 4e 9f a4 bd 9b 80 36 3e
       -0.06656633 -0.13209808 -0.080381975 0.17822497
000040 6c 14 3b bc ed 3f 41 3e 35 08 e5 3b 64 10 fb 3c
       -0.011418443 0.18872042 0.0069895037 0.030647464
000050 97 1d 25 3e 4a f5 4c bc 03 81 b6 3d ef 3a 45 3e
       0.16124569 -0.012509653 0.08911326 0.19260763
000060 39 50 d3 3e 76 40 f4 3d 16 a2 64 bd 48 1e d0 bd
       0.41272143 0.119263574 -0.05581864 -0.10162026
000070 30 9d 00 be 33 bd a6 bd ce e9 2c 3c ed 64 4d bc
       -0.12559962 -0.08141556 0.01055379 -0.01253627

accel_conv.1.running_mean f4 [32]
000000 ac 7a 02 3e 4c a9 06 bd d4 93 29 be 4f 10 bd bd
       0.12742108 -0.032876298 -0.16560298 -0.09231626
000010 cb 8c 65 3c 43 7f 65 3e eb 3a 10 bd 08 83 02 be
       0.014010618 0.22411828 -0.03521244 -0.12745297
000020 1d 09 bc bc 20 77 8d 3d 66 a4 7d 3e 97 e8 61 3e
       -0.022953564 0.06907487 0.24769744 0.22061382
000030 62 b7 5b bc 28 1d 3b 3d d7 ce 9d 3e f5 45 12 3e
       -0.013410421 0.045682102 0.3082187 0.14284499
000040 5c 4d 2d bd 78 86 3b 3e c8 9a 01 3e 19 51 e0 bd
       -0.042310104 0.18313015 0.126567 -0.10952968
000050 f7 93 33 3e f1 d8 8f b9 b6 55 2f be c4 0d 3d bd
       0.17536913 -0.0002743672 -0.1712254 -0.046155706
000060 0b 26 a5 3e b3 95 46 3d fe c7 97 be d7 2f 40 3e
       0.32255587 0.048482608 -0.2964477 0.1876825
000070 88 bd 16 3d 3b 28 1e 3e c5 54 34 bd 19 28 f3 3d
       0.036801845 0.15445034 -0.044026155 0.118728824

accel_conv.1.running_var f4 [32]
000000 b8 39 cb 3e 57 f4 00 3e 76 70 2b 3e 91 df a7 3d
       0.39692473 0.12593208 0.16742119 0.08196939
000010 84 94 dc 3e a5 9c 0b 3f bf 3a 64 3e 16 cd 23 3e
       0.43082058 0.54535896 0.22288035 0.15996203
000020 aa ca c6 3e dc fb a6 3e 8c 3d 22 3e 15 79 83 3e
       0.38826495 0.32614028 0.15843791 0.25678316
000030 8f 9d 25 3f 26 1e 9d 3e 41 12 a1 3e dc 38 54 3e
       0.6469354 0.30687064 0.3145924 0.20724815
000040 c3 e8 a2 3e 81 81 9d 3e 75 32 f1 3e c9 b1 13 3f
       0.31818208 0.30762866 0.47108808 0.57693154
000050 e9 ad 43 3e 19 94 1d 3e bc 5d 98 3e 5d 4f 9a 3e
       0.1910931 0.15388526 0.29759014 0.30138674
000060 d5 1b 32 3e 74 47 67 3f 6a 73 2d 3e 54 67 a3 3e
       0.1739343 0.90343404 0.16938558 0.3191477
000070 06 df e3 3e f9 c5 35 3e 78 c2 03 3f 18 96 75 3e
       0.4450609 0.17751302 0.5146861 0.23983037

accel_conv.4.weight f4 [64, 32, 3]
000000 9d 82 88 3c 4f 0a 69 3d 99 d9 a5 3c a2 0d 11 bd
       0.016663844 0.056894597 0.02024536 -0.035413392
000010 7b cb 02 3d da f4 06 bd 8f 2b 3d 3c 9f ec 0f bd
       0.031932335 -0.032948352 0.01154603 -0.03513777
000020 65 bf 7d bc 1e 6b bb 3d 5f a8 0b bc 05 50 f1 3c
       -0.015487527 0.0915129 -0.0085240295 0.029457102
000030 66 a7 ad bc 19 90 52 bd e9 35 14 bd 51 cb cb bd
       -0.021197986 -0.051406953 -0.036184225 -0.09950889
000040 fd eb dd 3d 86 9a de 3d 24 20 94 bd 57 a0 8b bd
       0.10836027 0.10869317 -0.07232693 -0.06817692
000050 3d 5c 35 3d f1 de d2 bc d6 6a c4 3b 92 eb 6b 3d
       0.04427742 -0.025741072 0.005994181 0.057597704
000060 4b 28 49 bd 4f 29 e2 bc 0f 67 ec bd 5b 10 64 bc
       -0.049110692 -0.027607588 -0.11543094 -0.013919915
000070 e1 a3 64 bd 18 15 33 3c 0d 40 bc bd ee 35 ac 3b
       -0.05582035 0.010930322 -0.09191904 0.0052554524
000080 df a4 e8 3c 5d da af bd 81 09 27 bd 1d 5f 9d 3d
       0.02839893 -0.08586571 -0.040780548 0.07684157
000090 7e 17 c2 bc 2b 19 f7 3b 56 bb cd bc 98 c1 64 bd
       -0.023692843 0.007540842 -0.025113743 -0.055848688
0000a0 b0 d1 c6 bb b1 ca 10 bd 68 48 be bc 13 b3 c3 3d
       -0.006067477 -0.03534955 -0.023227885 0.0955564
0000b0 bd 3c 93 bd 2d f3 93 3c 07 c7 60 bd d0 ac 6c bd
       -0.07189319 0.018060291 -0.054877307 -0.057781994
0000c0 28 53 71 3d 5e b4 e7 3c 66 8f 0f 3e 8a ca 14 3d
       0.058917195 0.028284248 0.14019546 0.03632597
0000d0 95 d3 89 3d 17 42 f2 bd ad 18 ad bd 0b b8 f0 bb
       0.06729809 -0.11829012 -0.08451972 -0.0073461584
0000e0 3b 64 61 3d 20 92 0c 3d 01 ec e8 bd 02 13 97 3d
       0.055027228 0.034319043 -0.11373139 0.07376672
0000f0 3b 43 dc bd 3a d6 f5 bc 58 93 c5 bd b3 cf f7 bc
       -0.10755011 -0.030009378 -0.09647244 -0.030250406
000100 b8 1b 84 3d d6 71 55 3d 52 7a 7b 3c 19 ba 2c 3d
       0.064505994 0.052110516 0.015348988 0.042169664
000110 6c 8a bc 3c fd fa 10 bd 55 14 d6 3d 82 99 cf 3d
       0.023015223 -0.03539561 0.10453097 0.10136701
000120 9e 65 bf 3c fc f2 f3 bd a5 bd e4 3c ed 39 46 3d
       0.023363885 -0.1191158 0.02792246 0.048395086
000130 77 51 4c bc ec cb d7 bd 63 9b 8e bd 75 6f 2e 3b
       -0.012470595 -0.10536942 -0.069632314 0.0026616727
000140 93 91 2b 3d 54 7e dd bd 93 f3 ef 3c 4b 11 07 3d
       0.041886877 -0.10815111 0.02929095 0.032975476
000150 b9 5c 33 3d f1 0e 22 3d 8b 06 b4 bd 58 01 88 bb
       0.0437896 0.03956503 -0.087903105 -0.004150551
000160 8b 18 cf bc 7f 31 38 bd cf 85 86 3b 66 c0 a6 3d
       -0.025280258 -0.04496908 0.0041053067 0.08142166
000170 da 6b ba 3c ab 89 59 bd 13 50 bf bc a2 29 57 bd
       0.022756506 -0.053109806 -0.023353612 -0.05252994
000180 45 ef 4e bd e2 7a d4 bc 03 c1 66 3d ad 5c 12 bd
       -0.050521154 -0.025937501 0.056336414 -0.035732914
000190 68 34 ba bc c1 5e d6 3c 21 13 79 3d c6 ad 64 bd
       -0.022730067 0.026168229 0.06080926 -0.055829786
0001a0 3e 14 e1 ba db 59 e6 3c 25 8e 57 bd f2 79 65 3d
       -0.001717217 0.028119018 -0.052625794 0.0560245
0001b0 2e f6 c8 bd 82 88 65 bd 14 f0 e3 3d c0 a6 1f bd
       -0.0981258 -0.056038387 0.11129776 -0.038977385
0001c0 d0 59 d7 bb 9f 43 b6 3d 78 f3 6d bd 5d fb 5e bd
       -0.006571986 0.088996165 -0.058093518 -0.054438937
0001d0 89 78 ae 3d 31 4f bb bc 58 44 b0 3d f3 46 cd 3c
       0.08519084 -0.02286491 0.086067855 0.025058245
0001e0 d9 52 00 ba 02 db 0d be 94 12 d5 bc b0 3f 47 bd
       -0.0004895158 -0.13853076 -0.026009835 -0.04864472
0001f0 56 02 dc bd 55 f3 d5 bb ac 79 b3 3a a3 44 ab bd
       -0.10742633 -0.0065292516 0.0013692877 -0.08362701
000200 d0 8e f6 bd e5 b9 77 bc ef de ad bd 12 18 4f 3d
       -0.12038958 -0.015120004 -0.08489787 0.050560065
000210 24 06 39 3d d7 77 ae 3d 17 18 97 bc 86 83 54 bd
       0.04517187 0.085189514 -0.018444104 -0.051883243
000220 3c 9b e0 bd 11 cb 64 bd c8 37 d2 bc 51 b3 88 bb
       -0.109671086 -0.05585772 -0.025661364 -0.004171767
000230 93 81 b4 3c 34 fa 92 3c 40 54 41 bc cb 19 27 bd
       0.022034442 0.017941572 -0.011799872 -0.040796082
000240 77 e4 d4 ba f6 68 86 bd 04 00 21 bd 4b cb 3b 3d
       -0.0016242404 -0.065629885 -0.039306656 0.045848172
000250 7f 68 48 bd 39 92 aa 3d 79 a7 d1 bd 61 1f 05 3d
       -0.04892778 0.08328671 -0.10237021 0.03250063
000260 ec e2 16 bd a2 af 27 3b 4d 08 ad 3d 57 e0 83 3d
       -0.036837503 0.0025586863 0.08448849 0.06439274
000270 db 1a 23 3c 11 c7 f7 3c 6f be c7 bd e5 10 6a bb
       0.009955133 0.03024629 -0.09753119 -0.0035715636
000280 13 e3 24 bc 7a fc e4 bc 6b f0 55 3d f1 97 b5 3d
       -0.010063904 -0.027952421 0.052231234 0.08866871
000290 96 7c f4 bc 20 67 ca bd 6c 62 76 bd fa 41 e5 bd
       -0.029844563 -0.09882951 -0.060152456 -0.11194225
0002a0 a6 68 28 bd fc cc d3 3d 66 62 cc bd 78 af e5 3c
       -0.041115426 0.10341832 -0.099797055 0.028037772
0002b0 e6 aa 8c 3d 31 61 0e bd 25 c3 b0 bd 2d b7 f8 3d
       0.06868534 -0.034760658 -0.08630971 0.12144313
0002c0 fd ac b4 3c 29 e7 2d 3d ca 61 88 3d 26 cd 73 3d
       0.022055143 0.04245678 0.06659277 0.059521817
0002d0 db 91 a8 bb 62 29 82 3d eb 50 a9 bd f4 b3 6b 3d
       -0.0051443405 0.063555494 -0.08267387 0.057544664
0002e0 c3 05 21 bd 48 c9 9d 3c d0 29 93 3c 01 e5 0c 3d
       -0.039312135 0.019261017 0.017964274 0.034398083
0002f0 62 93 53 3d aa ec 84 bd 9c dd 27 3d 28 74 31 bc
       0.051654227 -0.064904526 0.040982828 -0.010830916
000300 ea 26 01 3e 8a 94 64 3d 08 60 b2 bd 80 5c 21 bd
       0.12612501 0.05580572 -0.08709723 -0.039394855
000310 50 c8 aa 3d 80 63 a5 bc 2f 78 15 bd 61 65 63 3d
       0.08338988 -0.020189047 -0.03649157 0.055516604
000320 3c e2 18 bd d5 92 b3 bd 0a f0 d2 3b 95 6f 45 3d
       -0.03732513 -0.0876824 0.0064373063 0.048202116
000330 40 08 07 bd 12 24 eb bc bc 81 60 3c 91 eb 78 3d
       -0.032966852 -0.028703723 0.013702806 0.06077153
000340 6a 29 8d bb c2 ad 15 3d a0 85 dc 3a 11 a1 a3 3b
       -0.0043079155 0.03654266 0.0016824491 0.004993566
000350 4e 46 1a be cc 68 8b bd 8a 34 7f 3d 07 ca 4b bd
       -0.15065882 -0.06807098 0.062305965 -0.049753215
000360 c0 cb 04 bd 7b 61 d6 bd 29 12 85 bd c5 61 42 3d
       -0.032420874 -0.10467812 -0.064976044 0.04745652
000370 ee ac cc 3b a5 48 a9 3d a2 d6 35 3d c6 4b b9 bd
       0.0062462008 0.08265809 0.044394143 -0.09047656
000380 95 64 11 be aa 9b 53 bd c4 cb 94 3c 1b 60 ab 3d
       -0.14198525 -0.051662125 0.01816357 0.0836794
000390 5a c8 77 3c 0e dc 27 bb 07 c2 46 3d 65 45 9f bd
       0.015123451 -0.002561334 0.048524883 -0.07776908
0003a0 5c a4 4b ba e6 17 2d bc d6 37 15 3d c5 df 63 bc
       -0.0007768327 -0.01056478 0.036430202 -0.013908331
0003b0 b3 2c c9 3c 2d cc 94 bc 3b 63 ad 3d 37 c8 d8 bd
       0.024557447 -0.018163765 0.08466192 -0.10585063
0003c0 76 f1 55 3c 88 7d d7 bd df d7 b4 3b 2a 80 87 bd
       0.013058057 -0.1052199 0.005518898 -0.06616242
0003d0 08 c2 a5 3d 47 1b ac 3d 56 97 d8 bc 60 59 de 3d
       0.08093649 0.0840364 -0.02643935 0.10856891
0003e0 0d 11 1f be 3e 1c 22 3d ef ea d5 3c b9 8c b0 bd
       -0.15533848 0.039577715 0.026113002 -0.08620591
0003f0 64 9d 8c 3c 80 31 e1 3c 37 fb 06 bd ab 79 f0 bd
       0.017164893 0.027489424 -0.03295442 -0.11741956

accel_conv.4.bias f4 [64]
000000 04 b1 01 3d 2e 3c b9 bd a9 04 13 3d 9a 4d 67 3d
       0.031662956 -0.090446815 0.035893116 0.05647049
000010 26 86 7c 3c 2c f4 7c bd 4e cd 6f bd b7 8d 20 3d
       0.015412843 -0.061756298 -0.058545403 0.03919765
000020 2f 47 94 bd cd 69 6b bd 15 d2 75 bd ee ce 86 bc
       -0.0724014 -0.057473946 -0.060014803 -0.016456094
000030 26 d4 eb 3c ab 4c 92 3d 9b e6 ec 3c 7e cd 25 3c
       0.028787684 0.071435295 0.028918555 0.010119794
000040 bd ec 4a 3d 50 f9 bf bd 52 15 5c 3d c4 db fa bc
       0.049542177 -0.093737245 0.05373127 -0.03062237
000050 79 e1 93 3d c6 df cc bc b0 c9 1b 3c 46 a1 07 3e
       0.0722074 -0.025009047 0.009508535 0.13245115
000060 c8 f2 75 bd e7 db 4c 3d 65 22 9f 3d 61 7b 8f bd
       -0.060045987 0.050014403 0.07770232 -0.070059545
000070 08 4d 2d 3d b3 d4 15 bd 85 ee 22 3d 67 81 83 bd
       0.04230979 -0.0365798 0.03977825 -0.06421166
000080 9d e6 99 3d a5 b7 f6 3c cc b4 cc 3b be b0 aa 3d
       0.07514689 0.030116865 0.0062471386 0.08334492
000090 6b 3f c3 bd da 73 cc 3d e1 c8 cf 3d 7c 45 a6 3d
       -0.095335804 0.099830344 0.101457365 0.08118722
0000a0 5c cf 71 bd e4 b1 94 3d 9e 78 87 3b 82 8a b9 3d
       -0.059035644 0.072604924 0.0041342517 0.090596214
0000b0 6c 84 08 3d 1e a9 62 bd 5c 7f ec bc e3 7e 1d 3d
       0.033329412 -0.055337064 -0.028869323 0.038451087
0000c0 ec f4 03 3d f8 bd 8a bd 9f d9 9e bd 61 bb a0 3c
       0.032215998 -0.06774515 -0.07756352 0.0196206
0000d0 f0 71 9d bc 67 b5 79 3d 23 ae eb 3d 81 33 c0 3d
       -0.019219369 0.060964014 0.11507823 0.093848236
0000e0 27 e9 8f bd 31 68 ce 3b e6 0b c5 bd 0e 58 3b bd
       -0.07026892 0.0062990417 -0.0962141 -0.045738272
0000f0 d3 4a b8 bd e1 70 c5 3d 0e 74 b2 3c 00 b7 13 bd
       -0.089986466 0.096406706 0.021783855 -0.036063194

accel_conv.5.weight f4 [64]
000000 43 56 7d 3f 8d 11 7e 3f 3b ce 84 3f 50 89 87 3f
       0.9895975 0.9924553 1.0375437 1.058878
000010 09 02 85 3f f0 81 6d 3f fc ab 8d 3f bb 1c 64 3f
       1.0391246 0.92776394 1.106811 0.8910634
000020 89 46 8a 3f c4 48 87 3f 43 32 82 3f c5 9c 85 3f
       1.0802776 1.0569081 1.0171589 1.0438467
000030 9e 71 70 3f bb a5 85 3f 8a 29 7f 3f b4 42 87 3f
       0.93923366 1.0441202 0.9967276 1.0567231
000040 a9 27 80 3f eb bd 6c 3f 23 8d 85 3f fb aa 7f 3f
       1.0012103 0.9247729 1.0433697 0.9987027
000050 55 9d 81 3f 86 3c 81 3f c1 c0 6d 3f 6f d3 8a 3f
       1.0126139 1.0096595 0.92872244 1.0845774
000060 9c 0c 8b 3f 56 b0 81 3f 47 1e 89 3f 07 7b 6f 3f
       1.0863223 1.0131938 1.0712365 0.935471
000070 55 be 86 3f 40 b6 7f 3f 0c 1a 86 3f d3 18 89 3f
       1.0526835 0.99887466 1.0476699 1.0710701
000080 d1 85 80 3f 3b ef 82 3f 68 53 85 3f 9f 55 73 3f
       1.0040838 1.0229257 1.0416079 0.9505252
000090 d8 34 85 3f 5b cc 91 3f 64 12 73 3f 57 31 85 3f
       1.0406752 1.1390489 0.94949937 1.0405682
0000a0 83 4f 80 3f 2c b1 90 3f ef c8 83 3f 1b 90 83 3f
       1.0024265 1.1304069 1.0295695 1.0278352
0000b0 00 8c 69 3f 89 59 81 3f 56 35 88 3f ae 80 84 3f
       0.9122925 1.0105449 1.0641277 1.035177
0000c0 1f 37 84 3f ea 38 85 3f 59 08 81 3f ac 9b 8b 3f
       1.0329322 1.0407994 1.0080673 1.0906882
0000d0 8b 8a 72 3f 1b 7d 86 3f 81 6b 80 3f bc ff 7f 3f
       0.9474265 1.0506929 1.0032808 0.99999595
0000e0 99 92 82 3f 54 d3 6a 3f 99 bd 81 3f 44 86 7c 3f
       1.0200988 0.9172871 1.0135986 0.98642373
0000f0 e4 3f 89 3f e6 ba 77 3f 5d 95 8c 3f 54 8f 87 3f
       1.0722623 0.9676956 1.0983082 1.0590615

accel_conv.5.bias f4 [64]
000000 b9 f0 35 bd 88 6c 80 3d 2e 3a 34 bc 90 4f 48 3d
       -0.044419024 0.06270701 -0.011000199 0.048904
000010 cd 2c 18 3d e3 71 5f bc 35 1a 6b 3d e9 e5 13 be
       0.0371521 -0.013637993 0.05739804 -0.14443173
000020 4d 00 d3 bc 0f 5d 2d 3d 06 e0 1c 3e 61 e7 0e 3c
       -0.02575698 0.042325076 0.15319833 0.008722157
000030 64 af ed ba 07 19 1d 3c 49 6e 67 3d 03 b6 9e bb
       -0.0018133936 0.0095884865 0.05650166 -0.004843475
000040 1a c6 8c 3d f1 c2 a7 bd 5f 60 fd bc da 45 eb bc
       0.068737224 -0.08191479 -0.030929742 -0.028719831
000050 8a 0c d9 bd 3f 23 46 bd 34 3b 5b bd 13 59 17 bd
       -0.10598095 -0.048373457 -0.053523257 -0.036950182
000060 ac 2d 73 3c 00 cd 98 3c 3a f0 28 bd 59 22 32 3e
       0.014842432 0.01865244 -0.041244723 0.17395915
000070 cf 6c 03 bd 3d 1f 58 3d fb 91 df 3d eb 71 1c 3d
       -0.03208619 0.052764166 0.109165154 0.03819458
000080 8e ee 9c 3b 5d 69 8e bc 76 e5 77 3d 24 e1 d5 bc
       0.00478918 -0.017384226 0.060521565 -0.026108332
000090 d2 1b 33 bc d5 57 32 bd c2 fe cc ba 82 8c c0 bc
       -0.010931926 -0.043540794 -0.0015639889 -0.0235045
0000a0 9f cd 48 bd 8d 22 13 bd ec 03 c0 3b d9 fa a8 bd
       -0.04902422 -0.035921622 0.0058598425 -0.082509704
0000b0 37 9d 53 bc 14 de a1 3c 5d 43 2f 3d 85 9b 86 bb
       -0.012915901 0.019759215 0.042788852 -0.004107895
0000c0 f7 fe b1 3c da 22 89 bd cc f9 93 bb be 74 e5 3c
       0.021728022 -0.066961005 -0.004515862 0.028009769
0000d0 8e eb b0 3c c7 f6 67 3d 91 96 b2 3d bb 13 81 3a
       0.021596696 0.05663183 0.087201245 0.0009847799
0000e0 5e ab 34 bd 85 6b 12 bc 19 fa e8 3c 0d 9b 8a 3c
       -0.04410874 -0.0089367675 0.028439568 0.016919637
0000f0 99 59 ca bc b3 6e a8 bc 44 fa 0a 3e 8b 55 d9 bd
       -0.024700927 -0.020560598 0.13572031 -0.10612019

accel_conv.5.running_mean f4 [64]
000000 37 f2 7c bd 09 72 2d be 96 82 a4 3c b2 c0 db bc
       -0.06175443 -0.16938032 0.0200818 -0.026825283
000010 87 03 9d bd de ee 1c 3e 23 97 01 be 31 e1 01 3e
       -0.076666884 0.15325496 -0.1265531 0.1268356
000020 9f 42 4e be e9 68 2b be ea e6 f3 bd a0 e9 ec bd
       -0.20142601 -0.16739239 -0.11909278 -0.11567998
000030 a4 24 64 3e 03 d0 ed 3d cd 2f 20 bd 76 f9 e5 bd
       0.22279602 0.11611941 -0.039108086 -0.112292215
000040 d6 bf 8c bd 8b b9 81 3d fe f8 25 bd a3 96 b2 bd
       -0.06872527 0.06334218 -0.04052066 -0.08720138
000050 8c 8a 6b 3b e4 3d 9b bd 91 a5 88 3d 4c 62 12 3d
       0.0035940735 -0.07580164 0.06672204 0.035738274
000060 33 16 09 bd 83 3b 3e bd cc 38 50 bc 42 1b de bc
       -0.033468436 -0.046443474 -0.012708854 -0.027112607
000070 4c db 31 bd 11 ba d1 bd 00 b1 15 be ff 09 40 be
       -0.04342203 -0.102405675 -0.14618301 -0.18753813
000080 f0 94 85 3d 39 5b 9c 3b 00 2a 7c bd 9c c7 1a 3e
       0.06522548 0.004771617 -0.06156349 0.15115207
000090 36 e0 2e be 4f 67 98 3d c0 4d 8d 3e f3 27 75 3d
       -0.17077717 0.074415796 0.2759838 0.05985255
0000a0 f1 1b 10 be 1c b6 04 bd 04 d0 4e be 67 9a 1b bc
       -0.14073159 -0.032400236 -0.20196539 -0.009497262
0000b0 3d 22 45 3e 05 74 ca bd 77 a3 25 be 95 7a 0a 3d
       0.19251342 -0.0988541 -0.16175638 0.03380831
0000c0 69 02 8d bd e9 52 f2 39 88 27 13 be 12 6b 9e bd
       -0.06885225 0.0004621961 -0.14370549 -0.07735266
0000d0 f7 0b 75 bd be ac 3a 3c c2 a3 eb 3d 70 fb a0 3d
       -0.059825864 0.011393724 0.11505844 0.07860458
0000e0 d0 5e 07 be 72 1c 32 3d 4b 1c 30 be 03 f9 eb bd
       -0.13219762 0.04348416 -0.17198293 -0.115221046
0000f0 5c 13 0f be ec be 9c 3e 5e 73 49 be fc 0d b2 bd
       -0.13972229 0.30614412 -0.19672915 -0.086940736

accel_conv.5.running_var f4 [64]
000000 03 1b b3 3e 5d 49 91 3e 29 6b 8a 3e 67 04 d2 3e
       0.34981546 0.28376284 0.27034882 0.41018984
000010 73 96 dd 3e 59 f2 25 3f 56 85 b6 3e c4 16 c0 3e
       0.43278846 0.6482292 0.35648602 0.3751737
000020 98 2b e2 3e 4c a7 a8 3e b7 f7 f0 3e 99 43 cd 3e
       0.44173884 0.32940137 0.4706399 0.40090635
000030 aa bd a8 3f e6 bb 1e 3e bb f3 c7 3e e9 64 c2 3e
       1.3182881 0.15501365 0.3905314 0.37967613
000040 56 9f a4 3e ff c2 35 3f 93 78 0f 3e d1 a2 8a 3e
       0.32152814 0.71000665 0.14010839 0.27077344
000050 4f 52 b0 3e d7 ee b6 3e 48 da a2 3e 05 60 93 3e
       0.34437796 0.35729095 0.3180716 0.28784195
000060 c4 94 ad 3e f7 53 df 3e 91 09 16 3f e5 e1 0a 3e
       0.33902562 0.43618748 0.5860835 0.13562734
000070 c6 32 ba 3e 35 be be 3e f8 ab 2a 3f 0a e9 0f 3f
       0.36366862 0.3725449 0.66668653 0.56214964
000080 fd 86 93 3e 8d 1d ad 3e 83 c9 ee 3e 7f a6 08 3f
       0.28813925 0.33811608 0.46638116 0.5337905
000090 62 0e 62 3e e9 6b e9 3e bb 69 97 3f c4 39 5f 3e
       0.22075799 0.4559014 1.1829141 0.2179938
0000a0 3e 80 14 3f 28 09 f2 3e 42 3f 91 3e 71 0e 81 3e
       0.5800818 0.4727261 0.28368574 0.2520633
0000b0 fd 16 59 3f 72 0a 37 3e 7a ef 22 3f 15 99 a8 3e
       0.848007 0.17875078 0.6364666 0.32929292
0000c0 b3 9c a7 3e 73 77 b8 3e 1e 7c df 3e 77 19 ac 3e
       0.3273674 0.36028633 0.4364938 0.33613178
0000d0 d2 d3 0b 3f 7f 08 7f 3e bc e2 99 3e cc cd 0a 3f
       0.5462009 0.24905585 0.30055797 0.5422027
0000e0 71 55 8c 3e 0f 3c 55 3f b1 59 ce 3e 1a bb 95 3e
       0.27408937 0.8329477 0.40302804 0.2924431
0000f0 b3 12 db 3e 63 4b 77 3f ce f9 cd 3e c9 d4 93 3e
       0.42787704 0.96599406 0.40229648 0.2887328

accel_conv.8.weight f4 [128, 64, 3]
000000 25 9e a4 3c 64 5a f4 36 1f 97 2e 3d c2 2a a1 3c
       0.02009494 7.2822895e-06 0.04262459 0.019673709
000010 a3 ba 30 bc 76 06 3c bb 56 74 42 3d 33 05 dd bc
       -0.010786685 -0.0028690374 0.047474228 -0.026980018
000020 df 63 5c 3d 88 b2 1a bd f2 b5 fc bc 03 42 0f be
       0.053806182 -0.037767917 -0.030848477 -0.13990025
000030 63 c8 b2 3c ec e4 4b 3c 5a af 6c bd 7e be 18 bd
       0.021824067 0.012444716 -0.057784416 -0.037291043
000040 27 9d 02 bb 5d 57 fd 3a 59 95 87 bd 22 ed a4 3c
       -0.0019930096 0.0019328404 -0.06620283 0.020132605
000050 a2 eb 60 bc 25 f8 a9 bc 6a eb be bc d3 d4 13 bd
       -0.013728054 -0.020748207 -0.023305614 -0.036091637
000060 cc ec 16 bd ec 10 e4 3c e9 90 94 bc 53 b1 82 bd
       -0.03684692 0.0278401 -0.018135505 -0.06381478
000070 d2 e9 ea 3c c5 93 b0 bc 6e e3 3b bd a5 08 70 bd
       0.028675947 -0.021554837 -0.04587119 -0.058601994
000080 de cb 06 be 83 ba 02 3b 27 ab 3e bd 35 6c bb 3d
       -0.13163707 0.0019947595 -0.046549942 0.09151498
000090 32 e3 d1 3c c5 43 3b bd 21 05 61 bd 94 42 1a bc
       0.02562103 -0.045718927 -0.054936532 -0.0094152875
0000a0 de 9b 8b 3d 05 46 8a 3d 3e e0 6f bc 38 66 15 bd
       0.06816839 0.067516364 -0.014640866 -0.036474437
0000b0 fe ce fe bc c6 ab 5e 3d 6e 1a 61 3d 0d ca bf 3d
       -0.031104561 0.054363035 0.054956846 0.0936471
0000c0 38 53 7a 3d 21 fe 9e 3c dc 1e 9f 3d 93 56 ca 3c
       0.06111452 0.019408287 0.07769558 0.024699485
0000d0 72 5e 36 3d 73 de 43 3d 5c 9b 25 bd 56 e6 e5 3b
       0.044523664 0.047819566 -0.040431365 0.0070159836
0000e0 17 14 00 3d 4f 31 5d 3d 87 da 19 3d e3 e5 c4 bc
       0.03126916 0.054002102 0.03756192 -0.0240354
0000f0 ac 78 ba 3d 12 2a 7d 3d f5 36 03 3d 17 45 b8 bd
       0.091050476 0.0618077 0.032034833 -0.08997553
000100 39 d9 e6 bc 62 55 a6 bd be b0 fc 3c 65 0d b2 bc
       -0.028179752 -0.08121754 0.030845996 -0.021734903
000110 e6 9b 3f 39 9e 8f 14 be 72 93 92 bd d5 90 00 bd
       0.00018273256 -0.1450791 -0.07157029 -0.031388123
000120 4a 61 ac 39 81 dc e4 3c 33 da 6d bd 15 b2 b6 3b
       0.00032878882 0.027937176 -0.05806942 0.0055754283
000130 d0 73 f9 bd 74 a9 bc bb b7 17 28 3e a2 49 83 3d
       -0.121802926 -0.005757505 0.16415296 0.06410529
000140 f8 43 04 3e 19 bb 67 3d 4e 25 3c bc f1 88 04 bd
       0.12916553 0.056574915 -0.0114835035 -0.03235716
000150 75 cc 18 3c ac b0 92 bd 70 d5 0d bb bc 22 50 bb
       0.00932609 -0.07162604 -0.0021642111 -0.0031758985
000160 59 94 ed 3d f0 10 dd 3b 73 cd 14 3d 49 76 c4 3c
       0.11600561 0.006746404 0.036328744 0.023982184
000170 50 2a 85 bd 0a 61 7c 3c 17 57 d1 bc cf fa 14 3c
       -0.06502211 0.015403995 -0.025554223 0.009093001
000180 36 0a e5 3d 48 a5 53 bc c8 bd b3 bc 6e 29 6d 3b
       0.11183588 -0.012917824 -0.02194108 0.0036188024
000190 c1 ae 0f bd fd a2 85 bd 08 21 22 bd b5 2d a2 bd
       -0.035078768 -0.06525228 -0.039582282 -0.07918874
0001a0 76 a7 5b 3c e7 1f 75 3d 65 01 b5 bc cd 1b 28 bd
       0.013406625 0.059844878 -0.022095392 -0.041042138
0001b0 0f ca db 3d 02 6b 68 3d c1 35 16 3d d1 40 72 bc
       0.10731899 0.056742676 0.036672357 -0.014785961
0001c0 e9 c1 b4 3d 6b 2f 65 3d 9d 6b 8e bb 03 f1 08 bd
       0.08826048 0.055953424 -0.0043463246 -0.03343297
0001d0 e4 14 b9 3c 0b 32 44 bc 42 54 10 bd 3c f8 d1 bd
       0.02259297 -0.011974822 -0.035236605 -0.10252425
0001e0 a4 23 0e bd 97 57 83 bb 4b f8 29 3d aa 6a 0e bd
       -0.03470196 -0.0040082443 0.041496556 -0.03476969
0001f0 3c bd 53 3d 4c e8 28 bc 10 7e 9a bd 57 aa 8a bc
       0.05169414 -0.01030929 -0.07543576 -0.016926927
000200 91 c2 8b bc 01 7e a6 3d d8 c7 a8 3c ab 66 8d 3c
       -0.01706055 0.08129502 0.020603105 0.01726087
000210 53 ef 8b bd b9 cc 3e 3d 5d 71 32 bd 7a 45 87 bd
       -0.06832757 0.046581957 -0.043565143 -0.066050485
000220 db 80 26 bc 03 9b 84 bd ee 84 94 bd 91 ea 13 bd
       -0.0101625575 -0.06474879 -0.07251917 -0.03611237
000230 71 95 a0 3c de bd 34 3d d2 c5 81 bd 13 7f 2c bd
       0.01960251 0.044126384 -0.06336559 -0.042113375
000240 bc bb fb 3d d6 99 cc 3d a5 9b 0a 3d 8a 34 4f bd
       0.12291667 0.099902794 0.03383984 -0.050587215
000250 49 6d 24 3c cc 5a 23 3d 92 30 8b bc 3c ae 81 3d
       0.010035821 0.039881513 -0.016990934 0.06332061
000260 b2 a4 00 3d 7f d4 35 3c d6 70 69 3c 65 da 2d 3d
       0.031407066 0.011098026 0.014248094 0.042444605
000270 0b ee 5c bd 09 20 9b 3d 3c ab 32 3d 5b 9e fe bd
       -0.053937953 0.075744696 0.043620333 -0.12432548
000280 b1 0d 8d bd 6c 31 48 3c 87 61 c8 bd 1e 0e 80 bc
       -0.06887377 0.012218814 -0.09784227 -0.015631732
000290 81 98 36 bd e4 20 5c 3d fc b0 5e 3c af ed 6d 3b
       -0.044579033 0.053742304 0.013592001 0.0036305
0002a0 44 3a 1b bc 10 15 c1 3b e1 cc 22 3d 07 19 ab bd
       -0.009474341 0.0058924034 0.03974617 -0.08354383
0002b0 b3 5d 0e bd b0 e4 14 3d 50 d8 ee 3d ea 55 8d 3c
       -0.034757327 0.036350906 0.11662352 0.017252881
0002c0 4c 11 0d 3d 97 65 9b 3d 85 ed a1 3d db f2 ea 3c
       0.034440324 0.07587736 0.079066314 0.028680256
0002d0 98 15 82 3d 59 0a 08 3e 0c 78 9c 3d 12 7d 8b 3b
       0.06351775 0.13285197 0.076400846 0.004256853
0002e0 a0 70 70 3c ff 15 5d 3c 04 3c 3f bd 54 c7 85 bd
       0.014675289 0.013494014 -0.046688095 -0.065321594
0002f0 d0 77 c8 3d 7c a8 8c 3c 7b c2 aa bc 62 ad 0e 3c
       0.097884774 0.017170183 -0.020844689 0.00870833
000300 29 4c a6 bc 38 84 a9 3c bc 00 61 3d f9 ea 0d bd
       -0.020299988 0.02069293 0.05493234 -0.034647916
000310 87 26 21 bd 68 9c a0 bc 44 41 20 3d fb 0c 89 3d
       -0.039343383 -0.01960583 0.039124742 0.06691929
000320 45 31 9f 3d 87 69 a8 3d 77 be 7c 3d 35 9f 7c bd
       0.07773069 0.08223253 0.06170508 -0.06167527
000330 5a 18 1f bd 97 8b 93 bc ae 3f ea bc 9e 49 5a 3d
       -0.038841583 -0.018010898 -0.028594818 0.053292863
000340 56 54 90 3b d9 e4 f6 3c 04 9c 09 3e 05 8c 1a 3d
       0.004404585 0.03013842 0.13438421 0.03773119
000350 6c 13 d2 3d 0d 97 54 bd d9 af 28 3c 69 21 1a bd
       0.10257611 -0.051901866 0.010295832 -0.03762952
000360 c3 a5 96 3d 06 4a de 3d 9f 86 08 3e 32 2e 63 bd
       0.07355835 0.108539626 0.13332604 -0.055463977
000370 ec 8c 68 bd 3b 55 c3 bd 67 4a 8a bc c4 30 58 bd
       -0.05677502 -0.09537741 -0.01688118 -0.05278088
000380 f7 50 e5 bc ba 47 4e 3d be f4 81 bc 48 a2 d5 bc
       -0.027992709 0.050361373 -0.015863772 -0.026078358
000390 32 a6 47 3c 8b cd 00 3d 83 de 98 3d 02 b5 64 bd
       0.01218562 0.03144602 0.07464316 -0.055836685
0003a0 e7 e7 a4 bc ad cb 40 bd 9a 78 94 bc d5 8f 15 3d
       -0.02013011 -0.04706924 -0.018123914 0.036514122
0003b0 01 b1 71 bd 86 a9 96 3c 7c df 29 3d 20 55 85 3d
       -0.059006695 0.018391382 0.041472897 0.06510377
0003c0 cd 77 76 bb c2 60 ce 3c df 97 a9 3c 39 27 20 bd
       -0.0037608028 0.025192622 0.0207023 -0.039099906
0003d0 15 14 be 3c 24 a5 35 3d 9e 10 9b 3c 70 73 89 3b
       0.023202935 0.044346943 0.018928822 0.0041946694
0003e0 35 8b ba 3d e9 f2 3b 3d c7 56 53 bd 28 40 4b bc
       0.09108583 0.045885954 -0.05159643 -0.012405433
0003f0 44 ee 31 bd 49 4e 2c bd 70 72 ae bc 60 e0 7c 3c
       -0.04344012 -0.042066846 -0.021294802 0.015434355

accel_conv.8.bias f4 [128]
000000 a3 29 49 bd d8 c2 dd bc b2 90 ab bd 18 2b 7b 3d
       -0.049111973 -0.027070448 -0.08377208 0.061320394
000010 53 74 59 bd f9 42 c2 3c f9 91 19 bd cb 3f d4 3b
       -0.05308945 0.023713576 -0.037492726 0.0064773313
000020 33 de 08 3b 09 e3 46 bd 98 70 35 bd 55 7b 74 3d
       0.0020884394 -0.04855636 -0.04429683 0.05968793
000030 40 04 3a 3d 77 f3 33 bd 9d 32 ae 3c ff 2a 92 3d
       0.04541421 -0.043933358 0.021264369 0.07137107
000040 ee ae 52 bd 11 1a d3 bb 04 34 98 bd 8a 31 3d bd
       -0.051436357 -0.0064423163 -0.07431796 -0.046189822
000050 d6 18 41 bc 1d ce 7c bd f5 49 b0 bd 2a cb 6f bc
       -0.0117857065 -0.061720002 -0.08607856 -0.01463584
000060 de 64 1b 3d d8 27 dc bd b9 a8 e6 bc 75 3c ac bc
       0.03793799 -0.10749787 -0.028156625 -0.021024922
000070 09 56 b4 3c d4 ad af 3c 3b 6a 92 bd 27 4c 0b bd
       0.022013681 0.021445192 -0.07149168 -0.03400817
000080 c9 aa 6d 3d 80 17 5d 3d 17 08 86 bb ef 67 df bc
       0.0580242 0.05397749 -0.00409032 -0.02727124
000090 2f dc 8e bd 46 fb 9b 3d 22 44 d9 bd 49 53 81 3d
       -0.069755904 0.07616286 -0.106086984 0.063147135
0000a0 07 1c f2 3c 05 cd 70 3d 9b 44 86 3a 11 3b 95 3d
       0.02955438 0.05878927 0.0010243835 0.07286657
0000b0 33 ed 89 bc 7d 40 8d 3a bd 70 39 bd 53 d2 5b 3d
       -0.016836738 0.0010776665 -0.04527353 0.053667378
0000c0 3a ce f7 3c 5c 0c 7f 3d d3 da 71 3d 56 80 66 bd
       0.030249704 0.062267646 0.059046578 -0.056274734
0000d0 fe 0d ab 3c 31 4b 27 bd 6b 62 2d 3c 2a ac dc 3d
       0.020880695 -0.040843192 0.010582547 0.10775025
0000e0 81 90 25 3c 57 a8 49 bc 35 e9 8a bc 4a 31 9f 3c
       0.010105253 -0.012308202 -0.016956905 0.019432683
0000f0 ae d5 8f 3c 64 2e 51 bd c1 33 c6 3d 49 1b 11 3d
       0.017557945 -0.051069632 0.0967784 0.03542641
000100 af f4 42 3a 08 bc 9a bd fb 17 ae 3c 47 a3 38 bd
       0.00074369734 -0.07555395 0.02125167 -0.04507759
000110 2a d0 1e 3d 4e aa 3e 3d ba 5b d3 bb 36 21 1a bd
       0.03877274 0.046549134 -0.0064501436 -0.03762933
000120 e0 32 bb 3c 75 96 5b bd ef 7c 7f 3d 78 6a 3c bd
       0.022851408 -0.053610284 0.062375005 -0.045999974
000130 17 12 6a 3d ac d0 41 3d 27 3f 52 bd b5 8f 6c 3d
       0.057146158 0.047318146 -0.051329758 0.057754237
000140 47 c3 84 3d 73 3a 7c bd 0f e7 14 3c e5 58 e7 bb
       0.06482559 -0.06157918 0.009088292 -0.0070601576
000150 28 d1 5e bd c6 58 86 3d a7 3e 7c ba 57 df 5d bd
       -0.054398686 0.06559901 -0.0009622373 -0.05416807
000160 99 79 c7 3c 8d e7 2c 3d 36 1b a0 3c 61 f1 71 bd
       0.024349974 0.04221301 0.019544225 -0.059068087
000170 be 2c e3 3c f4 45 6a 3c 24 c5 20 3b 17 26 cb 3c
       0.027731296 0.014298905 0.0024531567 0.024798436
000180 33 80 5f bc 11 25 83 3c 60 24 f4 bc de 2f 96 bd
       -0.013641405 0.016008886 -0.029802501 -0.07333349
000190 6a d2 df bc 9b bf 84 bc 9c 41 14 3d e1 e2 8b bd
       -0.027322013 -0.016204646 0.036195382 -0.06830383
0001a0 17 6e 9b bd 0a a1 a0 bd ec 3d 71 3d 98 7c 92 bd
       -0.07589357 -0.07843216 0.058896944 -0.071526706
0001b0 0d e9 71 3d 2d 64 dc bc 86 29 9a 3b 06 1d 36 bc
       0.059060145 -0.026903236 0.004704657 -0.011115318
0001c0 eb e9 04 bd d8 fc 88 3d 94 55 00 bb 7c b3 64 bd
       -0.032449644 0.06688851 -0.0019582259 -0.055835232
0001d0 fa 15 81 bc 36 b5 64 3d 9f 8f d7 3c 84 5a 33 bd
       -0.01575755 0.05583688 0.026313601 -0.043787494
0001e0 1b 29 f8 3c cd 1c ea bc 79 69 a1 3c e2 39 82 bc
       0.030293038 -0.028578186 0.019703614 -0.015896741
0001f0 cd db 89 bd 0e fe 27 bd 31 23 6d bd 44 b8 66 3d
       -0.06731377 -0.04101377 -0.05789489 0.056328073

accel_conv.9.weight f4 [128]
000000 5c 32 99 3f 73 6d c3 3f 65 ca bb 3f 24 4b ba 3f
       1.1968493 1.5267776 1.4671141 1.4554181
000010 a3 a7 ba 3f e1 b8 8c 3f b8 97 b9 3f e4 51 bf 3f
       1.4582409 1.099392 1.4499426 1.4946866
000020 2a 8a e0 3f 9e 83 b5 3f f3 b7 b0 3f 01 80 b3 3f
       1.7542164 1.4180791 1.3806137 1.4023439
000030 38 c7 b1 3f 42 27 bb 3f 85 8c bd 3f 99 cb b7 3f
       1.3888922 1.4621356 1.4808508 1.4359008
000040 f4 27 c3 3f 35 7e ba 3f 1b 5c b9 3f 3e 82 bd 3f
       1.5246568 1.4569765 1.4481233 1.4805372
000050 c0 24 c4 3f 22 96 cd 3f e3 7b f6 3f 46 69 b8 3f
       1.5323715 1.6061442 1.9256557 1.4407127
000060 08 2b d0 3f 77 8c c0 3f d6 0a b0 3f 4a f8 f0 3f
       1.6263132 1.5042866 1.3753307 1.8825772
000070 55 52 da 3f b7 24 bc 3f 7c 24 bd 3f 4e d5 c3 3f
       1.7056376 1.4698704 1.4776759 1.529947
000080 ba e5 bb 3f 65 20 d2 3f 03 d6 d1 3f fb 07 c5 3f
       1.4679482 1.6416136 1.6393436 1.539306
000090 c5 08 bb 3f 66 06 af 3f 44 f3 be 3f 69 02 d5 3f
       1.4612051 1.3673828 1.4917989 1.664136
0000a0 e8 9e ba 3f df 7b d0 3f 81 64 be 3f ce bb d8 3f
       1.4579744 1.6287802 1.4874421 1.6932313
0000b0 2d 44 c7 3f 0a 54 c0 3f 2d 35 b4 3f 46 1d bc 3f
       1.5567681 1.5025647 1.4078728 1.4696434
0000c0 b5 4f be 3f fe b6 c0 3f ef 76 c4 3f 2f 97 ef 3f
       1.4868075 1.5055845 1.5348796 1.8718013
0000d0 5f f5 b7 3f ed 99 ab 3f 00 e5 bd 3f 9e 22 c1 3f
       1.4371756 1.340635 1.483551 1.5088689
0000e0 0c 8f d7 3f 01 97 e2 3f ac 6a cb 3f a8 cc b6 3f
       1.684053 1.7702333 1.5891929 1.4281206
0000f0 36 f5 df 3f bc 57 b9 3f c3 90 bd 3f 61 00 b5 3f
       1.7496707 1.44799 1.4809803 1.4140741
000100 1c 5f b0 3f 62 33 db 3f 72 78 b3 3f 17 10 cc 3f
       1.3779025 1.7125056 1.4021132 1.594241
000110 14 83 cb 3f 5c e2 b3 3f 96 43 e9 3f 8d ba b5 3f
       1.5899377 1.4053454 1.822375 1.4197556
000120 a1 51 bc 3f 2e af c7 3f dc 92 8e 3f 0c cd bc 3f
       1.4712411 1.5600336 1.1138568 1.4750075
000130 2f 20 bd 3f ba d6 b7 3f ff b4 b8 3f 9b e6 c8 3f
       1.4775447 1.4362404 1.4430236 1.5695375
000140 0f ea cb 3f 14 57 c7 3f 60 04 b6 3f d5 f1 c0 3f
       1.5930804 1.5573449 1.4220085 1.5073801
000150 08 23 c0 3f 1f 04 b8 3f b2 5a bf 3f 87 f9 bf 3f
       1.5010691 1.4376258 1.4949553 1.4998025
000160 f8 75 b5 3f 83 88 c8 3f b7 dc b2 3f 7a 04 bb 3f
       1.4176626 1.566666 1.3973607 1.4610741
000170 cf 61 bd 3f 93 84 f1 3f e4 c2 c5 3f 1e 09 b6 3f
       1.4795474 1.8868583 1.5450101 1.4221532
000180 c3 ee bd 3f 1e 45 c4 3f f7 96 b1 3f 73 44 c5 3f
       1.4838489 1.5333593 1.3874196 1.5411514
000190 10 a1 bd 3f 87 ec ba 3f f1 a2 b0 3f ab 52 c3 3f
       1.4814777 1.4603432 1.3799726 1.5259603
0001a0 98 31 94 3f 7e ca da 3f 6d 37 e3 3f 92 79 b7 3f
       1.1577635 1.7093046 1.775129 1.4333975
0001b0 a5 02 c8 3f f5 dc cb 3f 6e e2 bb 3f 57 64 bb 3f
       1.5625807 1.5926806 1.4678476 1.4639996
0001c0 65 da b2 3f 9f 50 cb 3f 12 ab cf 3f 34 09 b7 3f
       1.3972899 1.5883979 1.6224082 1.4299684
0001d0 67 56 92 3f 6d 05 ad 3f ed ec c6 3f 02 ed bf 3f
       1.1432618 1.3517281 1.5541054 1.4994204
0001e0 a6 ff 96 3f 9e b7 c5 3f 3e 61 be 3f 43 d4 e1 3f
       1.1796768 1.544666 1.4873426 1.7642902
0001f0 4d ee bf 3f 0d d1 c5 3f a5 6c b5 3f 73 c4 ca 3f
       1.4994599 1.5454422 1.4173781 1.5841202

accel_conv.9.bias f4 [128]
000000 31 57 27 3d 2e 31 67 bc 07 7f 4a 3c ad 94 83 bc
       0.040854637 -0.014110846 0.012359387 -0.016062105
000010 c5 30 22 3c 29 82 9a 3c 6d 5e 45 bc 42 35 6c 3b
       0.009899323 0.018860893 -0.012046439 0.0036042486
000020 b6 8b 29 bd 96 70 ce 3b ee 39 73 bd 92 2d 78 bc
       -0.041393004 0.0063000424 -0.059381418 -0.015147584
000030 de 23 53 bc 6d db 50 3c 06 c4 19 bd ea 28 f7 3c
       -0.012886969 0.012747628 -0.03754046 0.030170877
000040 1e cf 58 bd e8 3b e1 bc a3 ba b5 3c 07 1f 16 bd
       -0.052931897 -0.027494386 0.022183722 -0.036650684
000050 d6 46 79 3d 57 36 a8 3c db 2f 04 bd cf 86 84 bc
       0.06085857 0.020533724 -0.0322722 -0.016177563
000060 bb dd 26 3d c9 df b4 3c 95 9a 08 bd e4 f3 8a bd
       0.040738802 0.022079365 -0.033350546 -0.067848
000070 1b c6 80 bd a0 c4 71 bc 56 b0 8e 3b 4a 72 88 3d
       -0.062877856 -0.014756352 0.004354517 0.06662424
000080 d1 e5 af 3c 87 4b 0f bd bf 9f b3 bd da 6a dd 3c
       0.02147189 -0.034984138 -0.087707035 0.02702849
000090 5a ba 88 3b 54 d0 d1 ba 09 9a dd 3b 55 5b 7e 3d
       0.0041726055 -0.0016007521 0.006762747 0.06209882
0000a0 90 ec ea bb 2f 31 47 bd 93 45 87 bb f7 d8 a8 bb
       -0.0071693137 -0.04863089 -0.004128167 -0.0051528173
0000b0 fa bc 6b 3d a1 12 3d bd b4 9a 27 bd 6b 36 2c bd
       0.05755327 -0.046160344 -0.04091902 -0.042044085
0000c0 64 fe d6 3c 9e ed 46 3c f6 7b a0 bc 11 77 74 bc
       0.02624435 0.012141613 -0.01959036 -0.014920966
0000d0 59 1e ce bb cf 55 13 bd 72 7d e2 bc 27 03 e0 3c
       -0.006290239 -0.035970505 -0.027647708 0.027345253
0000e0 6a d6 9e 3d 5c af 2a 3d 3f 44 11 bd 3c 87 0b bb
       0.0775574 0.041671142 -0.035465475 -0.0021290323
0000f0 bd 3b 97 bb 94 8b 71 bc f6 0d 5c 3d 4a 19 6c bc
       -0.0046152757 -0.014742751 0.05372425 -0.014410326
000100 9c da 10 bc bf bd 67 bd 68 ab e2 ba 19 88 f4 bb
       -0.008841183 -0.05657744 -0.0017293515 -0.007462513
000110 ce 18 08 3b 0f 13 0a bd 51 d0 a1 bd 08 4d 4b 3c
       0.0020766738 -0.033709582 -0.07901061 0.012408502
000120 4b e0 61 bc 33 ea 21 3c 8c 10 b3 3c e8 2f 03 3c
       -0.013786386 0.009882498 0.021858476 0.008007027
000130 08 85 11 bd d3 a1 7a bd 20 c2 fb bb 45 4c 84 3d
       -0.03552726 -0.061189484 -0.0076830536 0.0645986
000140 a4 28 7d bd 6c 5f 76 3b d0 dd 18 bd 5c 01 7c 3d
       -0.061806336 0.0037593497 -0.037320912 0.061524734
000150 be 87 9f bc ab f9 10 bd e3 96 7b bb 8d 91 18 bd
       -0.019473907 -0.035394352 -0.0038389496 -0.037248183
000160 d6 82 11 3a 0e 2d 08 3d 32 66 53 bc 7b 98 76 bc
       0.0005550807 0.033246092 -0.012902783 -0.015051003
000170 3d d4 59 3d 30 db 1f bd 95 8e b2 3c 17 b9 27 bd
       0.05318092 -0.039027393 0.021796504 -0.040948
000180 18 6b 6a 3c 3e d3 9d 3c 54 91 f9 bc 1e 80 94 bc
       0.01430776 0.019265767 -0.030464806 -0.018127497
000190 d2 e6 96 3c 37 93 01 bd c7 b8 25 3b 23 e8 fc bc
       0.01842061 -0.031634536 0.0025287138 -0.03087241
0001a0 d9 e1 0c 3d f8 a5 20 3c 91 cc 91 bd d7 61 4b bb
       0.034395073 0.009805195 -0.07119096 -0.003103366
0001b0 f1 b2 e1 bc 53 ce 86 3d be d6 c7 bc 9c 74 c0 3b
       -0.027551146 0.06582322 -0.02439439 0.005873276
0001c0 3e aa 94 bc 88 2a 73 38 77 2d 64 bd 90 78 15 3c
       -0.018147584 5.7975325e-05 -0.05570742 0.009122983
0001d0 b9 e6 35 3d 0c 1f 28 bc 81 08 a1 bc 22 21 f9 ba
       0.044409487 -0.010261308 -0.019657375 -0.0019007067
0001e0 d4 79 44 3d 17 a1 9a 3b bd 6c 0d bd 3d a7 6d 3d
       0.047967747 0.0047189104 -0.03452753 0.05802082
0001f0 ee e8 cc 3c 65 88 66 3c 08 7d cb 3c f7 6f 68 bd
       0.025013413 0.014070605 0.024839893 -0.056747403

accel_conv.9.running_mean f4 [128]
000000 32 c5 e3 bd 03 24 20 bd 19 7a 33 be c1 cf 9a 3d
       -0.111215964 -0.039096843 -0.17527045 0.07559157
000010 d8 4e 01 be 25 7c a4 3c 6a 21 a3 bd 19 86 0a be
       -0.12627733 0.020078728 -0.079653576 -0.13527717
000020 bf 2b f5 3d a7 a4 bf bd 6d 8f ce bd 34 0b 8a bc
       0.119712345 -0.09357577 -0.1008595 -0.016851045
000030 58 0d a9 bb d7 fa 68 3d 35 8a a1 bd fa 3f 57 bc
       -0.0051590614 0.056879845 -0.07887689 -0.013137812
000040 3f a2 1d be 19 9d 11 bd 8b f2 a7 bd 04 73 3b be
       -0.15393923 -0.03555021 -0.08200558 -0.18305594
000050 c0 7c f3 bd 23 f9 b1 bb 3f 6d bd 3d 87 70 2c 3c
       -0.118890285 -0.0054313107 0.09249353 0.0105248755
000060 a6 57 0a bc 05 ad 38 be ce c8 2b be c9 64 9e bd
       -0.008443749 -0.18034752 -0.1677582 -0.07734067
000070 18 3b 76 bd 40 f6 84 3c 8e 37 a0 bd 4e 51 97 bd
       -0.06011495 0.016230702 -0.07823096 -0.073885545
000080 1b c6 8d 3c 5e c1 a9 bc 59 20 06 3d 69 65 c8 bd
       0.017306378 -0.020722087 0.032745693 -0.097849675
000090 f7 e8 4f be 2e e5 a1 3d 45 7f 00 be 95 c2 d1 3d
       -0.20303713 0.07905041 -0.1254855 0.10242192
0000a0 9b 88 5b 3d 3a fd 8c bd 05 b3 36 3d e2 89 83 3d
       0.053597074 -0.06884237 0.04460432 0.064227834
0000b0 ab f9 20 bc 92 a2 af bc 75 c2 f9 bd cb b4 25 3d
       -0.0098251505 -0.021439824 -0.12195293 0.04045562
0000c0 08 6d 95 bc 7f ac 5b 3d 12 ab 97 3d 44 69 b9 3d
       -0.018240467 0.053631302 0.07405676 0.09053281
0000d0 e5 23 b1 bd 64 31 a0 bd b8 b2 af bc 1a a8 ca 3d
       -0.086494245 -0.078219205 -0.021447524 0.09895344
0000e0 b2 76 01 3d 54 5a a2 3d 8d 5c 17 bd 2a 75 c7 bd
       0.031607337 0.07927385 -0.036953498 -0.09739144
0000f0 14 03 f5 3c 4f 72 0c be 7d 8e 7a 3d 00 eb 6a 3c
       0.029908694 -0.1371548 0.061171044 0.014338255
000100 11 39 1a bd 68 c5 f3 bd e7 9d 37 bc 54 53 fe 3c
       -0.03765208 -0.11902887 -0.01120708 0.031045593
000110 99 a9 ca 3d 81 f9 cc bc e4 cd 53 3d a1 c5 a3 bd
       0.098956294 -0.025021316 0.051710024 -0.07996679
000120 6e 2e dd 3a e2 29 57 bd eb 97 c6 3d 64 a1 0a bd
       0.0016874799 -0.052530177 0.09696945 -0.03384532
000130 f8 ba d2 bd bb b1 3c bd 4e f9 33 be 35 69 b4 3d
       -0.10289568 -0.046067934 -0.17575571 0.08809129
000140 d9 76 27 bd 19 3c ce bb 8b f0 ac bb fc b8 c3 bd
       -0.040884826 -0.0062937853 -0.0052776984 -0.09556767
000150 2a f5 0f be 5f e7 4a bd f2 22 ab bc a9 50 e8 bc
       -0.14058366 -0.04953706 -0.020890687 -0.028358774
000160 6f 2a 7a 3c 66 f4 a7 3d 65 5f 93 bd 35 23 b4 bd
       0.015268906 0.08200912 -0.071959294 -0.08795778
000170 f6 36 80 3d b5 74 aa bc f6 23 c2 3c a9 26 8a bd
       0.06260483 -0.020807603 0.023698788 -0.06745655
000180 a8 a9 a1 bd 42 26 93 3c 1d 03 04 be 9d 68 10 be
       -0.078936875 0.017962579 -0.12891813 -0.14102407
000190 66 53 d6 bc b2 6a d4 bc da f6 c8 bd c1 99 f4 bd
       -0.026162814 -0.025929783 -0.09812708 -0.11943389
0001a0 e7 ca 80 bd 80 f4 f7 bd 7b 3c 7e bb d9 1c 09 be
       -0.062887006 -0.121071815 -0.0038793373 -0.13389911
0001b0 62 20 1b bc b8 a5 19 bd 64 66 8b bc 1e 64 8e bc
       -0.00946817 -0.037511557 -0.017016597 -0.017381724
0001c0 ae 92 48 bd 36 ae b1 3d ed ec e8 bd 8b 46 3b 3c
       -0.04896801 0.08675806 -0.11373315 0.011430393
0001d0 09 43 88 bd a7 1a dd 3c b3 69 d1 3c e1 90 81 bd
       -0.06653411 0.026990248 0.025563097 -0.063264616
0001e0 33 30 ed bb 59 28 27 3c 9f 04 d7 bd d2 f3 40 bd
       -0.007238412 0.010202491 -0.10498928 -0.047107525
0001f0 79 45 38 bd 0a 64 c9 3d bb ec fc bd 4d 58 9a bd
       -0.04498813 0.09833534 -0.1234984 -0.07536373
