pth_tflite_converter/model/tflite/gesture_transformer_epoch409_tflite.tflite (tflite, 114392 bytes, 15 tensors)

MatMul_1 f4 [1, 128]
0	0xbedeb688	-0.43498635
1	0xbefec6d6	-0.49761075
2	0xbdaab558	-0.0833537
3	0xbed41398	-0.414212
4	0x3efb52a9	0.49086502
5	0x3ef04afc	0.4693221
6	0xbf0384b9	-0.51374394
7	0xbee78001	-0.45214847
8	0xbee41cfd	-0.44553366
9	0x3ef714cf	0.48258063
10	0x3f158a27	0.5841393
11	0xbed2cd10	-0.41172075
12	0xbb98d50b	-0.0046640686
13	0x3ef7be31	0.48387292
14	0xbecb2c00	-0.39682007
15	0x3f01fb27	0.50773853
16	0x3f0535e1	0.5203534
17	0xbed12c67	-0.4085419
18	0x3efca24b	0.4934257
19	0xbf032f58	-0.51244116
20	0xbef85b1d	-0.48507014
21	0x3d298673	0.041387986
22	0x3ececc5d	0.40390292
23	0xbedb040b	-0.42776522
24	0xbea3d8e7	-0.3200142
25	0xbf06240c	-0.52398753
26	0x3efc2a2d	0.49250928
27	0xbed3b90e	-0.41352123
28	0xbeff45a0	-0.49857807
29	0xbee403a3	-0.44534025
30	0x3f0935c4	0.53597665
31	0xbefb0280	-0.49025345
32	0x3ef290bf	0.47376058
33	0x3ef4939c	0.47768867
34	0xbee9fbc8	-0.45699906
35	0xbef419bc	-0.47675884
36	0xbef5263c	-0.47880733
37	0xbef7c820	-0.4839487
38	0xbd8761e3	-0.06610467
39	0xbf0300c1	-0.51173025
40	0xbef2813b	-0.4736422
41	0xbce32771	-0.027728768
42	0x3f0fa706	0.5611423
43	0x3eede5c9	0.46464375
44	0x3f01717b	0.5056378
45	0xbee605a5	-0.4492618
46	0xbeecab7d	-0.46224585
47	0x3f064d59	0.52461773
48	0x3ee4013a	0.44532186
49	0x3ef546a7	0.47905466
50	0xbeeb12d1	-0.45912793
51	0xbeefc7f4	-0.4683224
52	0x3f0142eb	0.50492734
53	0xbeee6735	-0.46563116
54	0x3eff2374	0.49831736
55	0x3f0d01de	0.55080974
56	0x3d15febe	0.036619894
57	0xbef68175	-0.48145643
58	0xbefea286	-0.4973337
59	0xbee0b2ce	-0.43886417
60	0xbee824c3	-0.45340547
61	0xbef8f083	-0.48620996
62	0x3efc270f	0.4924855
63	0x3ef66e8c	0.48131216
64	0x3f069861	0.5257626
65	0x3f0d7c1a	0.5526749
66	0xbec54e6f	-0.38536403
67	0xbf07807f	-0.52930444
68	0xbf0727bf	-0.5279502
69	0xbda3820d	-0.079837896
70	0x3f0fb341	0.56132895
71	0xbee2aa80	-0.44270706
72	0xbf0a64a0	-0.5405979
73	0xbed7ebc1	-0.42172053
74	0x3f01f4c6	0.5076412
75	0x3bf2066b	0.007386019
76	0x3ef05399	0.4693878
77	0xbaa4a8e8	-0.0012562545
78	0x3f040816	0.5157484
79	0x3efb84f5	0.49124876
80	0x3ef83bba	0.48483068
81	0x3efe160a	0.4962619
82	0xbefa0910	-0.4883504
83	0xbee1350c	-0.43985784
84	0xbed14cda	-0.40878946
85	0x3ef5c21e	0.47999662
86	0x3ef7dd76	0.4841115
87	0x3f04f03f	0.51929086
88	0x3ef509d2	0.47859055
89	0xbed9b82f	-0.42523333
90	0x3f02664d	0.5093735
91	0xbee59dc5	-0.4484693
92	0x3f019767	0.50621647
93	0xbf028fe6	-0.5100082
94	0x3ef6aab7	0.4817712
95	0x3ee6695e	0.45002264
96	0xbee5e3b1	-0.44900277
97	0x3d8b6247	0.06805854
98	0x3dafadfe	0.08578108
99	0xbefaefd8	-0.4901111
100	0x3ef716c2	0.4825955
101	0x3efcb10e	0.49353832
102	0xbf0487f9	-0.5176998
103	0x3eea71fa	0.45790082
104	0x3ef409a5	0.47663608
105	0xbef9a01f	-0.48754975
106	0x3efb4407	0.49075338
107	0x3f04ead8	0.51920843
108	0x3f12385b	0.5711724
109	0x3f0e80df	0.5566539
110	0xbee2b5cb	-0.44279322
111	0x3ef4f184	0.47840512
112	0x3f07c3e4	0.5303328
113	0xbee1faff	-0.44136807
114	0xbeea257a	-0.45731717
115	0x3f050845	0.51965743
116	0xbee49786	-0.44646853
117	0xbf014bda	-0.50506365
118	0x3f0aa632	0.54159844
119	0x3efcada7	0.49351236
120	0xbf06b9d8	-0.52627325
121	0x3ef32b2a	0.4749387
122	0x3ef69bd9	0.48165777
123	0x3f0afd78	0.5429301
124	0xbef7bb9b	-0.4838532
125	0xbd101261	-0.035173777
126	0x3f1545e0	0.58309746
127	0xbbe235c4	-0.006903382

classifier_main.0.bias f4 [128]
0	0xbc3b3b43	-0.011427703
1	0x3d581b98	0.05276069
2	0xbcdc3047	-0.02687849
3	0xbcd9b8cb	-0.026577374
4	0xbc3f9e34	-0.011695433
5	0xbc58ffa5	-0.013244544
6	0x3d4b234a	0.0495942
7	0x3d503b50	0.050837815
8	0xbb9d28b5	-0.0047961124
9	0x3d70353a	0.05864451
10	0x3d93703a	0.0719914
11	0x3d1f9749	0.038962636
12	0x3d2e7dca	0.04260043
13	0x3d26fe2c	0.04076974
14	0xbd1c53d9	-0.0381659
15	0x3d2cc423	0.042179238
16	0x3d4bd0b9	0.0497596
17	0x3bfb15c0	0.007662505
18	0x3d19d172	0.03755326
19	0x3cd9d6e4	0.026591726
20	0xbd1f68e5	-0.038918395
21	0xbd8b6b23	-0.06807544
22	0xbc76b8f4	-0.015058745
23	0xbcd1a79d	-0.02559262
24	0xbc88d5d8	-0.016703531
25	0xbd4ae7d8	-0.04953751
26	0x3d0be73d	0.034156073
27	0xbcc39de1	-0.023878993
28	0xbcb2cab0	-0.021825165
29	0x3d416cf0	0.04722303
30	0x3d817359	0.06320829
31	0xbc41a869	-0.011819937
32	0x3d9c99e3	0.07646539
33	0x3c85b74a	0.01632275
34	0xbd20a1f8	-0.039216965
35	0xbd20e546	-0.039281152
36	0xbcd83370	-0.026391715
37	0x3c2a6d08	0.010401972
38	0xbcd2ed41	-0.025747897
39	0x3d7db48d	0.061939765
40	0x3ca34bc0	0.019933581
41	0xbd6232ef	-0.055224355
42	0x3d71250d	0.058873225
43	0xbae31ebe	-0.0017327887
44	0x3d2b08d6	0.041756473
45	0xbd215342	-0.03938604
46	0x3d1e8585	0.038701553
47	0x3be19517	0.006884228
48	0xbcba9d0b	-0.022779962
49	0x3d3c8b33	0.04603119
50	0x3c65fbb5	0.014037062
51	0xbcdf0979	-0.027226197
52	0xbcb4f9ed	-0.02209183
53	0xbcc939cd	-0.024563694
54	0x3d18a0eb	0.03726284
55	0x3d3f1529	0.04665104
56	0xbc4cb32d	-0.012493891
57	0xbd04d2ab	-0.03242747
58	0x3d5350ef	0.051590856
59	0xbc896535	-0.016771892
60	0xbd35f14b	-0.044419568
61	0xbd2c73c7	-0.0421026
62	0x3d1500b4	0.036377624
63	0x3a2cccc5	0.00065917923
64	0x3cedb99f	0.029019175
65	0x3d19f78f	0.037589606
66	0xbc9d7e64	-0.019225307
67	0xbd488ad9	-0.04896054
68	0x3b8cec48	0.004300628
69	0xbd3d38ba	-0.046196677
70	0x3c8b7fad	0.017028654
71	0xbcf1b282	-0.029504064
72	0x3c977aa0	0.01849109
73	0xbd40389f	-0.046928998
74	0xbc928724	-0.017886706
75	0xbcd68188	-0.026184812
76	0x3c881798	0.016612813
77	0xbc18319c	-0.009289172
78	0xbc286c5b	-0.01027974
79	0x3d93b413	0.07212081
80	0x3d8a8f2a	0.06765588
81	0x3d848649	0.06470925
82	0xbcfdea80	-0.030995607
83	0x3c6a244e	0.014290882
84	0x3d40f76d	0.047110964
85	0x3d35d4b1	0.04439229
86	0x3cac8979	0.021061646
87	0x3d181181	0.037126068
88	0x3d9526e4	0.072828084
89	0x3d36d77d	0.0446391
90	0x3d64bd72	0.05584473
91	0x3ce766c9	0.028247254
92	0x3d30c09c	0.043152437
93	0xbbbe0e9d	-0.005800082
94	0x3cb0da33	0.02158842
95	0x3d061c25	0.032741684
96	0xbd3448f7	-0.044014897
97	0x3cd10b10	0.02551797
98	0xbd7b5f27	-0.06137004
99	0x3d1877b3	0.03722353
100	0x3b1348b0	0.0022473745
101	0xbc9cab86	-0.019124757
102	0xbaf0fcb2	-0.0018385856
103	0x382995cf	4.043226e-05
104	0xbcc0dc9c	-0.023542695
105	0xbcb5a39a	-0.022172738
106	0x3d391b0a	0.045191802
107	0x3d635390	0.055499613
108	0x3d7e8814	0.062141493
109	0x3caf3391	0.021386893
110	0xbcb660e2	-0.022262994
111	0xbc9496f2	-0.018138383
112	0x3d26a2a1	0.04068244
113	0x3aa1e441	0.001235135
114	0x3c6af4cc	0.014340591
115	0x3d1c09bc	0.03809522
116	0xbd1fb06c	-0.03898661
117	0x3c15efaa	0.009151379
118	0x3b4e31f6	0.0031462885
119	0x3c59ca04	0.013292793
120	0x3cd4cf3d	0.025977725
121	0x3db820d1	0.08990634
122	0x3d90e4df	0.07074904
123	0xb99dcd7f	-0.0003009848
124	0x3c7f98c5	0.015600388
125	0xbd18701d	-0.037216295
126	0x3d8d4791	0.06898416
127	0xbd65a6d8	-0.056067318

onnx_tf__tf_Conv_97_efa05e0a f4 [32]
0	0x3db72c94	0.089440495
1	0x3ca17c26	0.019712519
2	0x3c65545c	0.013997164
3	0xbbe072b0	-0.0068496093
4	0x3b726490	0.003698621
5	0x3d614755	0.05499967
6	0x3cbebb23	0.023282593
7	0x3e01e882	0.12686351
8	0xbd2eb978	-0.042657346
9	0x3d34d990	0.044152796
10	0xbcd6aa32	-0.026204202
11	0xbdc4308b	-0.09579571
12	0x3dbadb53	0.09123864
13	0x3dc648e0	0.096818686
14	0xbd7ee0c7	-0.062226083
15	0x3d78595b	0.06063209
16	0x3d680274	0.056642964
17	0x3c461c8c	0.012091767
18	0x3d05c9d8	0.032663196
19	0xbdaa4363	-0.08313634
20	0x3d15d86c	0.03658335
21	0x3d2e7200	0.042589188
22	0x3dbaca37	0.09120601
23	0xbc1d2c3a	-0.009593064
24	0x3d584044	0.052795663
25	0x3db08478	0.086190164
26	0x3d41ef0a	0.047347106
27	0x3cb389be	0.021916267
28	0x3db1e41b	0.08686086
29	0xbd8b5603	-0.06803515
30	0x3d961708	0.073286116
31	0x3d5309a9	0.051522885

onnx_tf__tf_Conv_88_b2ad866a f4 [32]
0	0xbc216a06	-0.009851938
1	0x3d3eb2d4	0.046557263
2	0x3c651526	0.013982093
3	0xbbbe12ec	-0.0058005955
4	0x3d7ec91a	0.062203504
5	0xbe0517de	-0.12997386
6	0x3df8cf24	0.12148884
7	0x3cc86436	0.024461847
8	0xbc7a8e83	-0.0152927665
9	0xbd85d538	-0.06534809
10	0x3d452167	0.048127558
11	0xbcf6da68	-0.030133441
12	0xbd89e02a	-0.06732209
13	0xbe06bbd0	-0.13157582
14	0xbda45913	-0.08024802
15	0x3e367984	0.17819792
16	0xbc3e2958	-0.011606537
17	0x3e40dac6	0.18833455
18	0x3bd3ab7c	0.0064596515
19	0x3d00cd30	0.031445682
20	0x3e249b1c	0.16074795
21	0xbc505d7a	-0.012717599
22	0x3db5b8e5	0.088731565
23	0x3e45cbd1	0.19316031
24	0x3ed3316a	0.41248637
25	0x3df43484	0.11924079
26	0xbd6159fa	-0.05501745
27	0xbdcf090a	-0.10109146
28	0xbe00748f	-0.12544464
29	0xbda64413	-0.08118453
30	0x3c329364	0.0108993985
31	0xbc5a5072	-0.013324844

onnx_tf__tf_Conv_100_0dee9916 f4 [64]
0	0xbe396e2d	-0.18108435
1	0x3deae2de	0.11469053
2	0x3e932e33	0.28746185
3	0xbe0346cc	-0.12819976
4	0xbe5fa8ca	-0.21841732
5	0x3e518fad	0.20464964
6	0x3e3e265a	0.18569317
7	0x3e996043	0.29956254
8	0x3cedadc8	0.02901353
9	0x3e8aa9cc	0.2708267
10	0xbe16e3d4	-0.14735347
11	0x3ebd192e	0.36933273
12	0x3ebf52da	0.37367898
13	0x3e026156	0.12732443
14	0xbdbfa274	-0.09357157
15	0xbe142059	-0.14465465
16	0x3e422339	0.18958749
17	0x3ef0452c	0.46927774
18	0x3d9e3286	0.0772448
19	0xbd8d68ce	-0.069047555
20	0x3ed5fe78	0.41795707
21	0x3ec9b0ce	0.39392704
22	0x3d35ba2f	0.04436701
23	0x3ec1d3ef	0.37857005
24	0x3ee5396a	0.44770366
25	0x3ec982de	0.39357656
26	0x3df77de4	0.120845586
27	0x3e1946e5	0.1496845
28	0x3e81a68a	0.25322372
29	0xbeb7b1e8	-0.3587792
30	0xbe9d4d76	-0.3072316
31	0xbcf2d466	-0.029642295
32	0xbcae22b0	-0.021256775
33	0x3e939c1e	0.28830045
34	0x3e572453	0.2100995
35	0xbbb7293c	-0.0055896323
36	0xbedc4efa	-0.43029004
37	0x3ea2ccf4	0.31796992
38	0x3e010786	0.12600526
39	0x3dfd9398	0.12381667
40	0xbde5ee22	-0.11227061
41	0xbd10bd83	-0.035336982
42	0xbe0f5745	-0.13998134
43	0x3df646f8	0.12025255
44	0xbe6c6880	-0.23086739
45	0x3e0fdf04	0.14049917
46	0xbea64982	-0.32477957
47	0x3c93e1ee	0.018052068
48	0x3d88717a	0.06662269
49	0x3ed6415a	0.41846734
50	0xbe71603c	-0.23571867
51	0x3d8c8ae6	0.0686243
52	0xbe0f9995	-0.1402343
53	0x3e3203b6	0.17384228
54	0xbe5baf18	-0.21453512
55	0xbda9f0ce	-0.08297883
56	0xbda18a21	-0.07887674
57	0xbe4ffbe9	-0.2031094
58	0x3ed60b5e	0.41805547
59	0x3e57365c	0.2101683
60	0x3e9c3337	0.30507824
61	0x3ed296a6	0.4113056
62	0xbe21d438	-0.15803611
63	0xbc6a92ba	-0.014317209

onnx_tf__tf_Conv_103_9dc4207d f4 [128]
0	0x3eea6af7	0.45784733
1	0x3eb28153	0.34864292
2	0xbf802044	-1.0009847
3	0x3f85236a	1.0401433
4	0x3de96739	0.11396641
5	0x3e9cedb3	0.306501
6	0x3f81a844	1.0129476
7	0x3e8a6dc1	0.2703686
8	0x3d8f1d1c	0.06987974
9	0x3ef250ed	0.47327366
10	0x3e8c9843	0.27459916
11	0x3e8105b1	0.25199655
12	0x3ed38b49	0.41317204
13	0x3e6b6ce5	0.22990759
14	0x3e7b4a63	0.24540095
15	0x3eb16cce	0.34653324
16	0x3e9b0434	0.30276644
17	0x3efa20f9	0.4885328
18	0x3e6a01dc	0.22852272
19	0xbef0dc72	-0.47043186
20	0xbe9e5722	-0.30925852
21	0x3d86321e	0.06552528
22	0x3ee83252	0.4535089
23	0x3ec9501b	0.39318928
24	0xbdf565e9	-0.119823284
25	0x3eec3149	0.46131352
26	0x3ee15c8b	0.44015917
27	0xbe88cd39	-0.26719072
28	0xbe14127d	-0.14460178
29	0x3eaf336d	0.34218922
30	0x3e8b7282	0.272358
31	0xbe8e66ce	-0.2781281
32	0x3f223724	0.6336539
33	0x3ea8584d	0.32879868
34	0xbf637b21	-0.88859755
35	0x3eb141dd	0.34620562
36	0xbf17a620	-0.5923786
37	0x3eb3f3f5	0.35147062
38	0x3ec1231c	0.377221
39	0x3de8b308	0.113622725
40	0x3e983145	0.2972509
41	0xbe27ae1a	-0.16375008
42	0x3f4f200b	0.8090827
43	0xbf376222	-0.71634114
44	0xbefc5d3c	-0.49289882
45	0x3f172e35	0.5905488
46	0x3e93e46a	0.28885204
47	0xbf830ff2	-1.0239241
48	0x3ebffc00	0.37496948
49	0x3e8b1514	0.2716452
50	0xbf3db739	-0.741077
51	0x3e621ced	0.22081347
52	0xbf60e661	-0.8785153
53	0xbe801a81	-0.2502022
54	0x3ec5311d	0.38514033
55	0x3e5216fb	0.20516579
56	0x3eb67a1b	0.35640034
57	0xbf150bfa	-0.582214
58	0x3e6775eb	0.22603576
59	0xbe47da4e	-0.1951687
60	0x3f2e4ea7	0.68088764
61	0x3ef87035	0.48523107
62	0xbf1478a4	-0.57996583
63	0x3e3e1b55	0.18565114
64	0x3e718a36	0.2358788
65	0x3ef2bf58	0.4741161
66	0xbe235acf	-0.1595261
67	0x3e19d808	0.15023816
68	0x3e4f4a4a	0.20243183
69	0x3e5ffb77	0.2187327
70	0xbf84f09f	-1.0385932
71	0x3e625d3d	0.2210588
72	0x3e580f9b	0.21099703
73	0x3f148970	0.58022213
74	0x400b0809	2.1723654
75	0x3eff1d62	0.49827105
76	0x3e71ef50	0.23626447
77	0x3e874d10	0.26425982
78	0x3e580feb	0.21099822
79	0x3eaeeae7	0.3416359
80	0xbf34b6fc	-0.7059171
81	0x3e018a55	0.12650426
82	0x3e2f521c	0.17121166
83	0xbed46abf	-0.4148769
84	0x3e638aed	0.22220965
85	0x3e92346a	0.28555614
86	0xbedf5985	-0.43622985
87	0x3ea44767	0.32085726
88	0x3e3bc6b8	0.18337524
89	0x3de068ae	0.10957466
90	0x3eb98fda	0.36242563
91	0x3f2d2f98	0.6765075
92	0x3f0b9289	0.5452047
93	0x3f08e213	0.5346996
94	0x3e85c4b4	0.26126635
95	0xbf0ad2bd	-0.5422781
96	0x3edfe92a	0.43732578
97	0x3ef613c1	0.48061946
98	0x3df249eb	0.11830505
99	0x3e79cb7a	0.24394026
100	0x3e87fcf6	0.2656018
101	0xbdff451f	-0.12464356
102	0x3e53f184	0.206976
103	0x3dc4d55a	0.09611006
104	0x3eacf7aa	0.33782703
105	0xbcd67b07	-0.02618171
106	0x406dc30d	3.71503
107	0x3e526d00	0.20549393
108	0x3ec976ec	0.39348543
109	0x3f4f0f68	0.80882883
110	0xbf6f9ca9	-0.9359842
111	0x3f8436cf	1.0329226
112	0xbe4a45f2	-0.19753245
113	0x3f021f25	0.5082877
114	0x3f4cb02b	0.7995631
115	0xbbab9f58	-0.005237501
116	0x3eedcbc5	0.46444526
117	0x3e7d14ad	0.24714918
118	0x3ee7a63a	0.45244008
119	0x3ed4b72a	0.41545993
120	0x3f617e88	0.88083696
121	0x3e879ee7	0.2648842
122	0x3f35b774	0.7098305
123	0x3f440f0a	0.7658545
124	0xbf6a69d2	-0.9156772
125	0x3f547188	0.82985735
126	0x3fa4bc6e	1.2870004
127	0xbeb50aab	-0.35359702

onnx_tf__tf_Conv_91_343f9d71 f4 [64]
0	0x3de5222a	0.11188157
1	0x3e56cc7c	0.20976442
2	0x3ca858c9	0.020550149
3	0x3e3f1836	0.1866158
4	0x3e3af9db	0.18259375
5	0xbe85d5f2	-0.2613979
6	0x3e3bde79	0.18346585
7	0xbe8b396e	-0.27192253
8	0x3e3c5e51	0.18395354
9	0x3e7a9ca1	0.24473812
10	0x3e7691ca	0.24079052
11	0x3e306f92	0.1723006
12	0xbe245e9c	-0.16051716
13	0xbddf0b0a	-0.108907774
14	0x3e28f5b0	0.16499972
15	0x3e5201fe	0.20508572
16	0x3e8e1c1e	0.27755827
17	0xbe8234a8	-0.254308
18	0x3e6d587c	0.23178285
19	0x3da391c0	0.07986784
20	0x3c4b5e98	0.01241269
21	0x3d194691	0.037420813
22	0xbe17486c	-0.1477372
23	0x3e225c7a	0.1585559
24	0xbd0e4e4e	-0.034742646
25	0x3e2aa069	0.16662754
26	0x3dae9f6f	0.08526503
27	0x3d84dbb4	0.064872175
28	0x3df0c60e	0.11756526
29	0x3e245703	0.16048817
30	0x3eb20f2b	0.34777197
31	0x3e5b83b5	0.21436961
32	0x3cbf42e2	0.023347322
33	0x3cded6dd	0.027202064
34	0x3e27e1b1	0.16394688
35	0xbdea231e	-0.11432479
36	0x3e1fe889	0.15616049
37	0xba2f0a80	-0.0006677285
38	0xbe1d9edb	-0.1539263
39	0x3cc4f512	0.02404264
40	0x3d6f9d45	0.058499593
41	0x3e0bff57	0.13671623
42	0x3ecef99b	0.4042481
43	0x3dfaadab	0.12240156
44	0xbe2eb5e4	-0.17061573
45	0x3dfd7b2f	0.12377011
46	0x3e6151c1	0.22003843
47	0x3b8bd4ab	0.0042672954
48	0x3e511610	0.20418572
49	0xbe3dacbe	-0.18522927
50	0x3dc56ef8	0.09640306
51	0x3e577cfb	0.2104377
52	0x3d96d69a	0.07365151
53	0x3e24db6d	0.1609933
54	0x3db2a98f	0.08723747
55	0x3cb1a780	0.021686316
56	0x3d9cc95b	0.07655593
57	0xbd3dafc3	-0.046310198
58	0x3e18ff40	0.1494112
59	0x3e131b6c	0.1436593
60	0x3d68c34e	0.056826882
61	0xbe688336	-0.22706303
62	0x3f039bc9	0.51409584
63	0xbbbf8ad0	-0.005845405

onnx_tf__tf_Conv_94_186f1201 f4 [128]
0	0x3edbd40f	0.42935225
1	0x3dfcad44	0.12337735
2	0x3f3b5d59	0.7318931
3	0xbe0a3c63	-0.13499598
4	0x3f3c2f9f	0.73510164
5	0x3d0da8d2	0.034584828
6	0x3eb2df90	0.3493619
7	0x3fb85aac	1.4402671
8	0xbf9fad6b	-1.2474798
9	0x3eb52002	0.35375983
10	0x3ed9986e	0.42499107
11	0x3f330493	0.69928855
12	0x3ec501bd	0.3847789
13	0xbf54f17a	-0.83180964
14	0x3f60dc80	0.87836456
15	0x3f3cd7a1	0.73766524
16	0x3f5c71ef	0.8611135
17	0x3e642f37	0.22283636
18	0x3daa7949	0.083239146
19	0x3fb265eb	1.3937353
20	0x3f65e579	0.8980327
21	0xbf1cbbda	-0.6122414
22	0xc01af64e	-2.4212832
23	0xbe8295ca	-0.25504905
24	0x3f12c7f7	0.5733637
25	0x3f3889c1	0.72085196
26	0x3f55f805	0.8358157
27	0x3f2c2320	0.67241096
28	0x3f6d1479	0.92609364
29	0x3d008f40	0.031386614
30	0x3d8398ef	0.06425654
31	0x3eb5d622	0.35514933
32	0x3ed0982b	0.40741095
33	0x3f6ac9d3	0.9171421
34	0xbf01baab	-0.5067546
35	0x3f36eff2	0.7145988
36	0x3fa3652b	1.2765249
37	0xbcd1014b	-0.025513312
38	0x3e5c3b34	0.21506959
39	0xbe968e80	-0.29405594
40	0xbe7a272c	-0.24429005
41	0x3fbe7b48	1.4881372
42	0xbef38c8c	-0.47568166
43	0x3ddcf8b2	0.10789622
44	0xbbe389d0	-0.0069439188
45	0x3e2ee35b	0.17078917
46	0x3f2815ae	0.6565808
47	0x3da2c008	0.07946783
48	0x3efba220	0.4914713
49	0x3d9fc506	0.07801251
50	0xbe026f35	-0.12737735
51	0xbffe9609	-1.9889537
52	0x3f832391	1.0245229
53	0x3e89a879	0.26886347
54	0x3e96143c	0.29312313
55	0x3dbffd55	0.09374491
56	0xbdf745ee	-0.12073885
57	0xbf89419e	-1.072315
58	0x3e5d9a22	0.21640828
59	0x3f8aa66f	1.0832042
60	0xbe1cb424	-0.15303093
61	0x3f536f02	0.8259126
62	0x3e8e410c	0.27784002
63	0x3e2506ce	0.16115877
64	0x3e954268	0.29152226
65	0x3ee77be6	0.45211715
66	0x3e8bb3cf	0.2728562
67	0xbf72f780	-0.94908905
68	0xbf197e03	-0.59957904
69	0x3f190a9f	0.5978183
70	0xbf787ba4	-0.9706366
71	0x3eb43aeb	0.352012
72	0x3e8010a8	0.25012708
73	0xbb050740	-0.002029851
74	0xbde78eff	-0.11306571
75	0xbd9b2c3e	-0.07576798
76	0x3fc17803	1.511475
77	0x3f2806cc	0.6563537
78	0x3f975ca8	1.1825151
79	0xbe56a912	-0.20962933
80	0x3f8865d5	1.0656077
81	0xbedbbc09	-0.42916897
82	0x3dbffc6a	0.09374316
83	0x3f56cb93	0.8390438
84	0x3f4f0d8c	0.80880046
85	0x3f808e1c	1.0043368
86	0x3e2da23c	0.16956419
87	0xbea14101	-0.31494907
88	0x3daddf2f	0.084898345
89	0xbebfa5db	-0.37431225
90	0x3f468d1f	0.77559084
91	0x3e755a78	0.23960292
92	0xbe85afb3	-0.2611061
93	0x3ee1263c	0.43974483
94	0xbe49da52	-0.19712189
95	0x3f47dd1a	0.7807175
96	0x3f0cb545	0.54964095
97	0xbb325c30	-0.0027215593
98	0x3f2cd1cb	0.6750762
99	0x3f4bc4c5	0.7959712
100	0x3c040789	0.008058437
101	0x3d832624	0.06403759
102	0x3fa31ce6	1.2743194
103	0x3f283e17	0.6571974
104	0xbd181433	-0.03712864
105	0x3f068448	0.52545595
106	0x3f299bb3	0.66253203
107	0x3f05c4d6	0.5225347
108	0x3f3724b6	0.7154039
109	0x3e18af60	0.1491065
110	0x3e4d9805	0.20077522
111	0x3d941c35	0.072319426
112	0x3df90e94	0.12160984
113	0xbe42172c	-0.18954152
114	0x3f926823	1.143803
115	0xbf1ad55f	-0.6048183
116	0x3e8444e7	0.25833818
117	0x3e3bdd04	0.1834603
118	0xbc4de2f6	-0.012566319
119	0x3e54a9df	0.20767926
120	0x3e6af514	0.22945052
121	0xbeccac6e	-0.39975303
122	0x3f9464b9	1.1593238
123	0x3ec77cf8	0.3896253
124	0xbe38e93a	-0.18057719
125	0xbf92319a	-1.1421387
126	0x3f1bd2d3	0.6086857
127	0x3fa3ba52	1.2791235

convolution f4 [32, 1, 3, 3]
0	0xbed5e421	-0.4177561
1	0xbe939383	-0.2882348
2	0xbef77c2f	-0.48336932
3	0xbd60a11e	-0.054841153
4	0xbeeb221e	-0.45924467
5	0xbdcb6a63	-0.09932401
6	0xbe818c71	-0.2530246
7	0x3e76995e	0.24081942
8	0x3e207bfe	0.156723
9	0xbebe925d	-0.3722104
10	0x3e439a03	0.1910172
11	0x3ea9b5c6	0.33146495
12	0x3f1eb4bb	0.6199452
13	0x3f088116	0.5332197
14	0xbf04f957	-0.5194296
15	0x3da463e0	0.08026862
16	0xbee085da	-0.4385212
17	0x3e91ef61	0.28502944
18	0xbed8de3a	-0.42357045
19	0xbeaf6c36	-0.34262246
20	0x3f435da6	0.7631477
21	0x3ee84976	0.45368546
22	0xbea896d2	-0.32927567
23	0x3ecfa6ac	0.40556848
24	0x3e5dba7f	0.21653174
25	0x3ec3ee2f	0.38267657
26	0x3e0b202d	0.13586493
27	0xbe0c80e1	-0.13721038
28	0x3ed59043	0.41711625
29	0xbe74980e	-0.2388613
30	0x3f1a363c	0.60239005
31	0xbebbea78	-0.36702323
32	0xbe216505	-0.15761192
33	0xbf573cae	-0.84076965
34	0x3f0586f5	0.52159053
35	0x3ef1e33c	0.4724368
36	0x3e981579	0.29703882
37	0xbec6c922	-0.38825327
38	0xbd846393	-0.06464305
39	0xbdd46978	-0.10371679
40	0x3d12fbc3	0.03588463
41	0x3e04e054	0.129762
42	0x3f08db1e	0.53459346
43	0xbf0830d3	-0.531995
44	0xbd806ed8	-0.06271142
45	0x3e143351	0.144727
46	0x3ea9930b	0.33119997
47	0x3ec947a6	0.39312476
48	0xbe1306cd	-0.14358063
49	0x3e956306	0.2917711
50	0x3e34b382	0.17646602
51	0xbec8f861	-0.39251998
52	0x3e8fb2c7	0.28066084
53	0x3ddf41ba	0.10901208
54	0x3f1ed4ad	0.6204327
55	0xbee3c879	-0.44488886
56	0x3d93626c	0.07196507
57	0xbd8c85ee	-0.068614826
58	0xbdc55a73	-0.096363924
59	0x3f036be3	0.513365
60	0xbed03b65	-0.40670314
61	0x3df43bda	0.11925478
62	0x3e386fe7	0.18011437
63	0xbf081094	-0.53150296
64	0x3efa5727	0.48894617
65	0xbde719af	-0.11284196
66	0xbe317564	-0.17329937
67	0xbe874ffc	-0.2642821
68	0xbe9f15e5	-0.31071392
69	0xbe34561e	-0.17610976
70	0xbed0ff26	-0.40819663
71	0xbe7dbcb0	-0.2477901
72	0xbef533f4	-0.478912
73	0xbe953fa1	-0.29150108
74	0x3ecbacfb	0.3978041
75	0x3ec89c22	0.3918162
76	0xbee6c3b9	-0.450712
77	0xbeb6f145	-0.3573095
78	0x3e985681	0.29753497
79	0x3dafe95f	0.08589434
80	0xbe4bdda1	-0.19908763
81	0x3ee66e6e	0.45006126
82	0xbebb08ed	-0.36530247
83	0xbef80988	-0.48444772
84	0xbe82c5a4	-0.25541413
85	0x3f1a6db2	0.6032363
86	0xbe9fcc80	-0.3121071
87	0x3dc4294f	0.095781915
88	0x3e827c81	0.25485614
89	0x3e96c612	0.2944799
90	0x3e560239	0.20899285
91	0xbe32fccf	-0.17479251
92	0xbdfb3fda	-0.12268038
93	0x3e9c1249	0.304827
94	0x3ef3382b	0.4750379
95	0x3eeec53d	0.46634856
96	0xbf272e38	-0.653049
97	0xbf4d8ff7	-0.802978
98	0x3e90a522	0.28250986
99	0x3cb5a0e0	0.022171438
100	0xbda5481c	-0.080703944
101	0x3f10e5b8	0.56600523
102	0x3e73160d	0.2373888
103	0x3c54364e	0.0129524
104	0x3ea252e8	0.31703877
105	0x3ea6d1da	0.3258198
106	0x3f118b86	0.5685352
107	0xbe96ae96	-0.29430073
108	0xbea939e4	-0.3305198
109	0xbdf3a063	-0.11895826
110	0x3ee42c90	0.44565248
111	0xbea98d8a	-0.33115798
112	0xbdf309df	-0.11867117
113	0x3ed749e9	0.42048576
114	0xbb8f51d8	-0.00437377
115	0xbc94dfcd	-0.018173123
116	0xbdb26913	-0.087114476
117	0xbd50840a	-0.050907172
118	0xbee97702	-0.45598608
119	0xbea3098d	-0.31843224
120	0x3ed6ffec	0.41992128
121	0x3dfa5825	0.122238435
122	0xbe87b5eb	-0.2650598
123	0x3e0ee4f1	0.13954522
124	0x3f1974b4	0.599437
125	0x3e3cb8cc	0.1842987
126	0xbf0d43c3	-0.5518152
127	0xbdfe0042	-0.12402393
128	0x3e22195c	0.15829986
129	0xbef4e5cc	-0.4783157
130	0x3e941d4b	0.289286
131	0xbee9d9c4	-0.45673954
132	0x3eec1cb7	0.46115658
133	0x3d8bf40b	0.06833657
134	0xbe49971a	-0.19686547
135	0x3ea72bf6	0.32650727
136	0x3e150133	0.14551239
137	0x3f049a56	0.51798
138	0x3e69b3c5	0.22822483
139	0x3f0f88b1	0.5606795
140	0xbeb31563	-0.34977254
141	0xbe06b05c	-0.13153213
142	0xbf25050c	-0.64460826
143	0xbe65b384	-0.22431761
144	0x3e86ba31	0.26313928
145	0x3f020094	0.5078213
146	0xbe49e0cc	-0.1971466
147	0xbef47dd6	-0.47752255
148	0x3e72e153	0.23718767
149	0x3f15a110	0.58448887
150	0xbda7dc32	-0.08196296
151	0xbe7163f8	-0.23573291
152	0x3e7ca27c	0.24671358
153	0x3e6873ed	0.22700472
154	0x3c3510a4	0.011051331
155	0x3ec196c9	0.37810352
156	0xbeeb6964	-0.45978844
157	0x3e1b5a71	0.1517122
158	0x3eec4aea	0.46150905
159	0x3e213dd3	0.1574624
160	0x3f1b4e20	0.60666084
161	0x3e4665a3	0.19374709
162	0x3e81fc58	0.25387836
163	0xbec87e80	-0.39159012
164	0x3ea36858	0.31915545
165	0xbcce6c53	-0.025198137
166	0xbe77b246	-0.241891
167	0x3e3a775a	0.18209592
168	0xbeba0a6c	-0.36336076
169	0xbe8a12a1	-0.26967338
170	0xbe002d05	-0.12517174
171	0xbe9a439c	-0.30129707
172	0x3e9f269f	0.31084153
173	0xbe947798	-0.28997493
174	0x3ede266d	0.43388692
175	0x3eb2deea	0.34935695
176	0xbec126ec	-0.37725008
177	0x3e936ec2	0.2879544
178	0xbe07e984	-0.13272673
179	0xbe1bd8e4	-0.15219456
180	0xbf17f249	-0.5935407
181	0x3eaa5a5a	0.33272058
182	0x3df07884	0.117417365
183	0x3f3231f4	0.6960747
184	0xbeefec3d	-0.46859923
185	0xbe5afeb6	-0.21386227
186	0x3d8fe7ad	0.070266105
187	0xbe0d3979	-0.13791455
188	0x3f3149fd	0.6925352
189	0xbedeef7d	-0.4354209
190	0xbe6f7826	-0.23385677
191	0x3ee05b16	0.43819493
192	0x3e7a9014	0.24469024
193	0xbe370d26	-0.1787611
194	0x3e46e80a	0.19424453
195	0xbf0e4d78	-0.5558696
196	0x3ecbef0a	0.3983081
197	0xbe837e6e	-0.25682396
198	0xbe06f5dd	-0.13179727
199	0x3eee38dc	0.46527755
200	0x3f394055	0.7236379
201	0x3ed2976a	0.41131145
202	0xbe9aa57f	-0.30204388
203	0x3edffd7c	0.4374808
204	0xbd58694c	-0.052834794
205	0x3ee1658b	0.44022784
206	0x3ecc08a6	0.39850348
207	0x3e4a4635	0.19753344
208	0x3ea0d545	0.31412712
209	0x3f037b79	0.5136028
210	0xbdc401ac	-0.095706314
211	0xbd2c138a	-0.04201082
212	0xbf07bebd	-0.5302542
213	0xbd3f7538	-0.046742648
214	0x3d1563ef	0.036472257
215	0xbf089170	-0.5334692
216	0xbea37f25	-0.3193294
217	0x3eb6ca4b	0.35701212
218	0x3dc27fcf	0.09497034
219	0x3ea42448	0.3205893
220	0xbeb027c2	-0.34405333
221	0x3eda7c81	0.42673114
222	0xbe03eaca	-0.12882534
223	0xbf3199bc	-0.69375205
224	0xbeb2afc3	-0.3489972
225	0x3e397ab2	0.18113211
226	0xbeb9f9fc	-0.36323535
227	0xbea66dd9	-0.32505682
228	0x3e172c10	0.14762902
229	0xbebae783	-0.36504754
230	0xbea191d9	-0.31556585
231	0x3e64a102	0.22327045
232	0x3db66956	0.0890681
233	0x3e824d26	0.25449485
234	0x3ead5b72	0.3385883
235	0xbd5424e2	-0.051792987
236	0xbf27b8bb	-0.6551625
237	0xbf4cb6ee	-0.7996663
238	0x3f11a0f5	0.56886226
239	0xbec9f6f0	-0.3944621
240	0x3f081618	0.5315871
241	0xbf15535d	-0.5833033
242	0xbdacce79	-0.08437819
243	0xbef8afee	-0.48571724
244	0xbe33818c	-0.17529887
245	0xbf1bf3ad	-0.60918695
246	0xbe2c2966	-0.16812667
247	0xbb88842a	-0.004166146
248	0x3e98a184	0.29810727
249	0xbe94e4d3	-0.2908083
250	0x3de775a2	0.113017336
251	0xbee1b904	-0.44086468
252	0x3ebf1077	0.3731725
253	0x3d3463ea	0.044040598
254	0xbec88763	-0.39165792
255	0x3f0014c1	0.5003167

convolution_3 f4 [32, 1, 3, 1]
0	0xbf0e9dea	-0.5570971
1	0xbe500adc	-0.20316643
2	0xbf461320	-0.7737293
3	0x3f0c55ca	0.54818404
4	0x3ee2f6aa	0.44328815
5	0x3f0a4749	0.5401502
6	0xbe9a54ec	-0.30142915
7	0xbf74032f	-0.9531736
8	0xbe9f4350	-0.31106043
9	0x3fb4678f	1.4094104
10	0x3eff802b	0.49902472
11	0xbeb1bbdb	-0.34713635
12	0x3fa5e657	1.2960919
13	0x3fc04040	1.5019608
14	0xbfa09970	-1.2546825
15	0x3fde874c	1.7385039
16	0x3f915456	1.1353862
17	0xbfa9c9cd	-1.326471
18	0xc12038ee	-10.013899
19	0x3ffb2d7d	1.9623257
20	0x40d38fd5	6.6113076
21	0x4137c649	11.485909
22	0xc223a3a4	-40.909805
23	0x41e14e09	28.163103
24	0xc183c1a3	-16.46955
25	0x40d801f7	6.75024
26	0x4130c63a	11.048395
27	0x41e3229c	28.3919
28	0xc1822d3f	-16.272093
29	0xc13eb67c	-11.919552
30	0xbee4baf9	-0.446739
31	0x3f97fe9d	1.1874577
32	0x3f509194	0.81472135
33	0x3f8bc1c5	1.0918509
34	0x3f27700a	0.65405333
35	0xbe54fefc	-0.20800394
36	0x3f77999e	0.96718776
37	0xbfc2783c	-1.5192943
38	0xbf793260	-0.9734249
39	0x3f1372c0	0.5759697
40	0xbfcdc53e	-1.6075819
41	0xbeff968d	-0.4991955
42	0xbf0fca04	-0.56167626
43	0xbee04034	-0.43798983
44	0xbf0c8358	-0.54887915
45	0x411de6d3	9.868854
46	0xc286bf15	-67.37321
47	0x426bc2a0	58.940063
48	0x4132ccd7	11.17501
49	0xc2c7a779	-99.827095
50	0x42b4391e	90.11156
51	0x3f0e2d58	0.5553794
52	0xbfea7978	-1.8318319
53	0xbe6c2a3a	-0.23062983
54	0x3f2af98e	0.6678704
55	0x3f66c4a6	0.9014381
56	0xbc63e6ff	-0.013910054
57	0xc025b3b3	-2.589093
58	0x405f6595	3.490575
59	0x3f1f831d	0.6230944
60	0x4181f0b8	16.242538
61	0x4095df88	4.6835365
62	0xc1b1334e	-22.150051
63	0xc0eeb7dc	-7.459944
64	0x40b01d07	5.5035434
65	0x405d7d5f	3.460777
66	0xbf017e1c	-0.5058305
67	0xbf7f7944	-0.9979441
68	0xbcc4cd29	-0.02402361
69	0xbd8424c9	-0.06452329
70	0x3fd12b44	1.6341329
71	0xbc44cdf8	-0.012011997
72	0x3ed1d48c	0.40982473
73	0x3f136078	0.57569075
74	0x3f115569	0.5677095
75	0xbfc40e44	-1.5316854
76	0xc044a258	-3.0724087
77	0x40462a1b	3.09632
78	0x40e7675c	7.231367
79	0xc177ad19	-15.47976
80	0x40ddd52d	6.9322724
81	0xbf330e56	-0.6994375
82	0xbcb311d8	-0.021859095
83	0xbf595dc9	-0.8490873
84	0xc1b19256	-22.196453
85	0x41b18cca	22.193745
86	0xbf785947	-0.97011226
87	0x3c000574	0.0078138
88	0x3f71eba5	0.9450019
89	0x3f212d7a	0.62960017
90	0xbf095d8c	-0.53658366
91	0xbf408944	-0.7520945
92	0xbe8d1b5d	-0.2755994
93	0x3f37f72a	0.7186152
94	0x3d6bb99b	0.057550054
95	0x3f47e6a3	0.780863

convolution_4 i1 [64, 1, 3, 32]
0	0x1e	30
1	0xcd	-51
2	0x1f	31
3	0x19	25
4	0x53	83
5	0x10	16
6	0x0e	14
7	0xd9	-39
8	0x4c	76
9	0x08	8
10	0x58	88
11	0x30	48
12	0xf9	-7
13	0x3c	60
14	0x44	68
15	0x09	9
16	0x17	23
17	0xdc	-36
18	0x18	24
19	0xf3	-13
20	0xe8	-24
21	0x20	32
22	0xd4	-44
23	0x3c	60
24	0x27	39
25	0x38	56
26	0xf7	-9
27	0x22	34
28	0x39	57
29	0x77	119
30	0xef	-17
31	0xfe	-2
32	0xd8	-40
33	0xeb	-21
34	0xc4	-60
35	0xd2	-46
36	0x65	101
37	0x2f	47
38	0xb9	-71
39	0x3b	59
40	0x08	8
41	0xbe	-66
42	0x40	64
43	0x4a	74
44	0x41	65
45	0x12	18
46	0xb9	-71
47	0xff	-1
48	0xf5	-11
49	0xb1	-79
50	0x04	4
51	0x63	99
52	0x4a	74
53	0x38	56
54	0x28	40
55	0x74	116
56	0x69	105
57	0x25	37
58	0x65	101
59	0x59	89
60	0xdb	-37
61	0x7f	127
62	0xed	-19
63	0x2e	46
64	0xb0	-80
65	0x47	71
66	0x11	17
67	0x65	101
68	0xd2	-46
69	0x34	52
70	0x4d	77
71	0x46	70
72	0x2e	46
73	0xcb	-53
74	0x40	64
75	0x05	5
76	0xef	-17
77	0xc9	-55
78	0x35	53
79	0x22	34
80	0xd3	-45
81	0xe4	-28
82	0x55	85
83	0x74	116
84	0x4a	74
85	0xd3	-45
86	0x3b	59
87	0xe5	-27
88	0x14	20
89	0xaf	-81
90	0xe3	-29
91	0xb7	-73
92	0x2d	45
93	0x35	53
94	0x33	51
95	0x14	20
96	0xe2	-30
97	0xf3	-13
98	0x24	36
99	0xdb	-37
100	0x10	16
101	0xe0	-32
102	0xca	-54
103	0xba	-70
104	0xf0	-16
105	0xeb	-21
106	0xec	-20
107	0xd1	-47
108	0xa9	-87
109	0x09	9
110	0xb8	-72
111	0x0a	10
112	0xfa	-6
113	0x04	4
114	0xd7	-41
115	0x3f	63
116	0x0c	12
117	0xb5	-75
118	0x46	70
119	0x36	54
120	0x9f	-97
121	0x4a	74
122	0xca	-54
123	0x18	24
124	0x11	17
125	0x26	38
126	0x03	3
127	0x0f	15
128	0xf6	-10
129	0x05	5
130	0x01	1
131	0x4e	78
132	0x00	0
133	0xd6	-42
134	0x49	73
135	0x4e	78
136	0x4c	76
137	0xee	-18
138	0x14	20
139	0x49	73
140	0xe6	-26
141	0x1d	29
142	0x05	5
143	0xf5	-11
144	0xc0	-64
145	0xf5	-11
146	0xed	-19
147	0x7f	127
148	0x1c	28
149	0x58	88
150	0x03	3
151	0xe7	-25
152	0x09	9
153	0xc2	-62
154	0xad	-83
155	0xbd	-67
156	0x59	89
157	0xf8	-8
158	0x1c	28
159	0x09	9
160	0x27	39
161	0x38	56
162	0xdd	-35
163	0xaf	-81
164	0xf6	-10
165	0x4e	78
166	0xdb	-37
167	0xfd	-3
168	0x05	5
169	0x41	65
170	0xcc	-52
171	0x1c	28
172	0x22	34
173	0x43	67
174	0xee	-18
175	0xb5	-75
176	0xb8	-72
177	0xf3	-13
178	0xa7	-89
179	0x2f	47
180	0xcc	-52
181	0xc3	-61
182	0xac	-84
183	0xc4	-60
184	0xaa	-86
185	0x31	49
186	0x32	50
187	0xba	-70
188	0xb8	-72
189	0x00	0
190	0x44	68
191	0x36	54
192	0xca	-54
193	0x0c	12
194	0x46	70
195	0xf8	-8
196	0x08	8
197	0x45	69
198	0xad	-83
199	0xa7	-89
200	0x3b	59
201	0x0f	15
202	0xa3	-93
203	0xa0	-96
204	0xd4	-44
205	0xbb	-69
206	0x65	101
207	0x3f	63
208	0x22	34
209	0x12	18
210	0x2b	43
211	0x32	50
212	0xec	-20
213	0x45	69
214	0x40	64
215	0xf9	-7
216	0xa7	-89
217	0xdc	-36
218	0x3f	63
219	0xf5	-11
220	0x9b	-101
221	0xf3	-13
222	0xb3	-77
223	0x41	65
224	0xd4	-44
225	0x06	6
226	0xe9	-23
227	0x4a	74
228	0x53	83
229	0xcb	-53
230	0x36	54
231	0x92	-110
232	0xa7	-89
233	0xc1	-63
234	0xc7	-57
235	0xea	-22
236	0xca	-54
237	0x99	-103
238	0x68	104
239	0x04	4
240	0xc3	-61
241	0x19	25
242	0x20	32
243	0xaa	-86
244	0x1c	28
245	0x0d	13
246	0xe9	-23
247	0xc4	-60
248	0x1a	26
249	0xfc	-4
250	0xd7	-41
251	0x26	38
252	0xc3	-61
253	0xd8	-40
254	0xc1	-63
255	0xf4	-12

convolution_5 i1 [128, 1, 3, 64]
0	0xf6	-10
1	0xfb	-5
2	0xf0	-16
3	0x32	50
4	0xae	-82
5	0x0d	13
6	0xbf	-65
7	0xa3	-93
8	0xc3	-61
9	0x0b	11
10	0xf4	-12
11	0xf8	-8
12	0xe7	-25
13	0x0c	12
14	0x15	21
15	0x09	9
16	0xe0	-32
17	0xf6	-10
18	0xba	-70
19	0xf5	-11
20	0xf9	-7
21	0x0f	15
22	0xcc	-52
23	0xf8	-8
24	0x96	-106
25	0xf0	-16
26	0xde	-34
27	0x05	5
28	0x1a	26
29	0xfa	-6
30	0xaa	-86
31	0xff	-1
32	0x50	80
33	0x34	52
34	0x9c	-100
35	0xde	-34
36	0xf1	-15
37	0xbc	-68
38	0x9e	-98
39	0xf1	-15
40	0xa5	-91
41	0x4b	75
42	0x20	32
43	0x4f	79
44	0xfc	-4
45	0xea	-22
46	0xb5	-75
47	0xd7	-41
48	0x1d	29
49	0x1c	28
50	0x3e	62
51	0x9a	-102
52	0xba	-70
53	0xc3	-61
54	0x44	68
55	0xc8	-56
56	0xab	-85
57	0x00	0
58	0xa0	-96
59	0xb5	-75
60	0x2a	42
61	0xa2	-94
62	0xad	-83
63	0xf8	-8
64	0xde	-34
65	0x9c	-100
66	0x22	34
67	0x39	57
68	0x18	24
69	0x01	1
70	0x01	1
71	0xbb	-69
72	0xcf	-49
73	0x1a	26
74	0x0b	11
75	0xbf	-65
76	0x31	49
77	0x95	-107
78	0x29	41
79	0x3f	63
80	0x15	21
81	0xbc	-68
82	0xc7	-57
83	0xf0	-16
84	0xe3	-29
85	0x85	-123
86	0x0c	12
87	0xeb	-21
88	0x2d	45
89	0x17	23
90	0xe1	-31
91	0x35	53
92	0x33	51
93	0x32	50
94	0xc6	-58
95	0xfd	-3
96	0xc1	-63
97	0xe5	-27
98	0x9d	-99
99	0xea	-22
100	0x1b	27
101	0xf3	-13
102	0xbb	-69
103	0x1a	26
104	0x31	49
105	0xc4	-60
106	0xb9	-71
107	0x0c	12
108	0x1b	27
109	0xca	-54
110	0xde	-34
111	0xe4	-28
112	0x9e	-98
113	0xe0	-32
114	0xf6	-10
115	0xb5	-75
116	0x26	38
117	0xf9	-7
118	0xd0	-48
119	0x0f	15
120	0xbf	-65
121	0xd5	-43
122	0x2b	43
123	0xde	-34
124	0x25	37
125	0x90	-112
126	0x1f	31
127	0x8d	-115
128	0xd4	-44
129	0xb3	-77
130	0x40	64
131	0xcf	-49
132	0xd2	-46
133	0xed	-19
134	0xce	-50
135	0xc4	-60
136	0x02	2
137	0x18	24
138	0xb2	-78
139	0xa0	-96
140	0x2b	43
141	0x8d	-115
142	0xad	-83
143	0xec	-20
144	0xe3	-29
145	0x9b	-101
146	0xf6	-10
147	0x01	1
148	0xcf	-49
149	0xf3	-13
150	0xeb	-21
151	0x94	-108
152	0xed	-19
153	0xf6	-10
154	0x81	-127
155	0x14	20
156	0x0c	12
157	0xf2	-14
158	0xe4	-28
159	0xc8	-56
160	0x1d	29
161	0x0e	14
162	0x10	16
163	0x16	22
164	0x23	35
165	0xea	-22
166	0xab	-85
167	0xdb	-37
168	0xc2	-62
169	0xb5	-75
170	0x03	3
171	0x3a	58
172	0xe6	-26
173	0x8a	-118
174	0x39	57
175	0x2f	47
176	0xca	-54
177	0xdb	-37
178	0xf4	-12
179	0x0b	11
180	0xf0	-16
181	0xd4	-44
182	0x15	21
183	0xd9	-39
184	0xfe	-2
185	0xe5	-27
186	0xb8	-72
187	0xb7	-73
188	0x49	73
189	0x11	17
190	0xdf	-33
191	0xc6	-58
192	0x9f	-97
193	0x10	16
194	0x88	-120
195	0xe3	-29
196	0x30	48
197	0xc3	-61
198	0x19	25
199	0x9f	-97
200	0x0f	15
201	0x25	37
202	0xb8	-72
203	0xee	-18
204	0x95	-107
205	0x03	3
206	0xc0	-64
207	0x03	3
208	0x23	35
209	0x16	22
210	0xda	-38
211	0xcf	-49
212	0xc3	-61
213	0x94	-108
214	0xbe	-66
215	0x12	18
216	0x9e	-98
217	0x07	7
218	0xf8	-8
219	0xb5	-75
220	0x8c	-116
221	0xa4	-92
222	0xc3	-61
223	0x0e	14
224	0xbc	-68
225	0xdb	-37
226	0xbe	-66
227	0x09	9
228	0x01	1
229	0xaa	-86
230	0xac	-84
231	0xb8	-72
232	0xdf	-33
233	0x23	35
234	0x20	32
235	0x83	-125
236	0xe8	-24
237	0xe5	-27
238	0xb4	-76
239	0x30	48
240	0x9d	-99
241	0xe1	-31
242	0xb1	-79
243	0x8f	-113
244	0xb9	-71
245	0xf3	-13
246	0x0d	13
247	0x41	65
248	0x24	36
249	0xba	-70
250	0x2e	46
251	0xe0	-32
252	0xbf	-65
253	0xe5	-27
254	0xe6	-26
255	0x0b	11

convolution_1 i1 [64, 1, 3, 32]
0	0x0f	15
1	0xe0	-32
2	0x0a	10
3	0x53	83
4	0xed	-19
5	0xa6	-90
6	0xbe	-66
7	0xe9	-23
8	0xd4	-44
9	0xf3	-13
10	0xad	-83
11	0xb2	-78
12	0xeb	-21
13	0xcd	-51
14	0xeb	-21
15	0x10	16
16	0x35	53
17	0x21	33
18	0xb3	-77
19	0x1f	31
20	0x9f	-97
21	0xe5	-27
22	0x0e	14
23	0xe0	-32
24	0x15	21
25	0x2c	44
26	0xc1	-63
27	0x9e	-98
28	0x28	40
29	0xfc	-4
30	0x04	4
31	0xd0	-48
32	0x34	52
33	0x1d	29
34	0xe0	-32
35	0xf8	-8
36	0xd1	-47
37	0x62	98
38	0xc2	-62
39	0x05	5
40	0xe7	-25
41	0xcd	-51
42	0x05	5
43	0xdb	-37
44	0x07	7
45	0xfb	-5
46	0x57	87
47	0xce	-50
48	0x1a	26
49	0x3d	61
50	0xf9	-7
51	0x99	-103
52	0xe5	-27
53	0x3a	58
54	0x26	38
55	0x5f	95
56	0x94	-108
57	0xf5	-11
58	0x02	2
59	0x1b	27
60	0x24	36
61	0xe9	-23
62	0x4a	74
63	0xeb	-21
64	0x12	18
65	0xe2	-30
66	0xf2	-14
67	0x1b	27
68	0xdf	-33
69	0x62	98
70	0x28	40
71	0x34	52
72	0x97	-105
73	0x0a	10
74	0x1a	26
75	0x46	70
76	0xe9	-23
77	0xe0	-32
78	0xbf	-65
79	0xcc	-52
80	0x7f	127
81	0x95	-107
82	0x32	50
83	0x43	67
84	0xa9	-87
85	0x2f	47
86	0x15	21
87	0x5c	92
88	0x19	25
89	0xa1	-95
90	0x26	38
91	0x1e	30
92	0xb0	-80
93	0xd7	-41
94	0x15	21
95	0xd0	-48
96	0xd2	-46
97	0xdf	-33
98	0x38	56
99	0x1a	26
100	0xa6	-90
101	0xdc	-36
102	0xcb	-53
103	0xeb	-21
104	0x00	0
105	0xd3	-45
106	0x01	1
107	0xf2	-14
108	0x29	41
109	0xd0	-48
110	0xe8	-24
111	0x10	16
112	0xff	-1
113	0x2a	42
114	0xa2	-94
115	0x02	2
116	0x09	9
117	0xfd	-3
118	0x30	48
119	0xa5	-91
120	0xda	-38
121	0x1a	26
122	0xb1	-79
123	0x27	39
124	0xfb	-5
125	0x35	53
126	0x10	16
127	0xc4	-60
128	0xe8	-24
129	0xeb	-21
130	0xcd	-51
131	0xd0	-48
132	0xcd	-51
133	0xfa	-6
134	0xce	-50
135	0x4f	79
136	0x81	-127
137	0x9e	-98
138	0xb3	-77
139	0xb2	-78
140	0x4e	78
141	0x9b	-101
142	0xfc	-4
143	0xf5	-11
144	0xc4	-60
145	0xd3	-45
146	0x1e	30
147	0x4d	77
148	0x1c	28
149	0xf7	-9
150	0x51	81
151	0xc9	-55
152	0x5f	95
153	0x3f	63
154	0x6f	111
155	0x3d	61
156	0x3a	58
157	0xdc	-36
158	0x20	32
159	0x26	38
160	0x34	52
161	0x18	24
162	0xfe	-2
163	0x33	51
164	0x66	102
165	0x52	82
166	0x4e	78
167	0x17	23
168	0xe8	-24
169	0xfa	-6
170	0x92	-110
171	0x2e	46
172	0xef	-17
173	0xcd	-51
174	0x14	20
175	0xdb	-37
176	0xdc	-36
177	0x4c	76
178	0xde	-34
179	0x3b	59
180	0xa7	-89
181	0xe6	-26
182	0xe5	-27
183	0x99	-103
184	0xa5	-91
185	0xe0	-32
186	0x14	20
187	0x37	55
188	0xb4	-76
189	0x12	18
190	0x2f	47
191	0xf6	-10
192	0x67	103
193	0xe0	-32
194	0xe2	-30
195	0xb8	-72
196	0xe5	-27
197	0x32	50
198	0x01	1
199	0xc8	-56
200	0xe5	-27
201	0x27	39
202	0x24	36
203	0xd6	-42
204	0x0c	12
205	0xc0	-64
206	0x1e	30
207	0xf1	-15
208	0x0b	11
209	0xca	-54
210	0xea	-22
211	0x20	32
212	0x0e	14
213	0xa0	-96
214	0xe5	-27
215	0x49	73
216	0x07	7
217	0x03	3
218	0x05	5
219	0x6c	108
220	0x34	52
221	0xf3	-13
222	0x26	38
223	0xc8	-56
224	0x2e	46
225	0x44	68
226	0x2d	45
227	0x05	5
228	0xe9	-23
229	0xfc	-4
230	0x04	4
231	0x33	51
232	0xaa	-86
233	0x05	5
234	0xb6	-74
235	0x0f	15
236	0xfe	-2
237	0xff	-1
238	0xf5	-11
239	0x45	69
240	0xaa	-86
241	0x42	66
242	0x59	89
243	0x15	21
244	0x16	22
245	0xea	-22
246	0xf4	-12
247	0xac	-84
248	0x2d	45
249	0xb8	-72
250	0x19	25
251	0xed	-19
252	0x07	7
253	0xda	-38
254	0xff	-1
255	0xa8	-88

convolution_2 i1 [128, 1, 3, 64]
0	0x10	16
1	0x0f	15
2	0x25	37
3	0xe3	-29
4	0x11	17
5	0xe3	-29
6	0xcd	-51
7	0xf0	-16
8	0xe3	-29
9	0xcf	-49
10	0xdd	-35
11	0x02	2
12	0x14	20
13	0xf9	-7
14	0xf5	-11
15	0x2a	42
16	0x2f	47
17	0x13	19
18	0xe1	-31
19	0x2a	42
20	0x46	70
21	0xba	-70
22	0x18	24
23	0x90	-112
24	0x00	0
25	0x04	4
26	0x7f	127
27	0x2c	44
28	0x07	7
29	0xfe	-2
30	0x1c	28
31	0x0c	12
32	0x57	87
33	0x03	3
34	0xe1	-31
35	0x2e	46
36	0x53	83
37	0xf5	-11
38	0xfd	-3
39	0xf7	-9
40	0xe5	-27
41	0xe5	-27
42	0xc6	-58
43	0x3f	63
44	0xcb	-53
45	0xcd	-51
46	0xc8	-56
47	0x22	34
48	0x5f	95
49	0xd9	-39
50	0xf3	-13
51	0x09	9
52	0xd6	-42
53	0xa0	-96
54	0xb4	-76
55	0x2a	42
56	0xf9	-7
57	0xbf	-65
58	0x5a	90
59	0x3b	59
60	0x31	49
61	0x03	3
62	0xdc	-36
63	0x0d	13
64	0x00	0
65	0xf8	-8
66	0xeb	-21
67	0xe8	-24
68	0x0a	10
69	0xfe	-2
70	0x10	16
71	0xee	-18
72	0x16	22
73	0x16	22
74	0xd3	-45
75	0xdc	-36
76	0xdd	-35
77	0x35	53
78	0xe4	-28
79	0x2b	43
80	0x0f	15
81	0x22	34
82	0x05	5
83	0x1d	29
84	0x30	48
85	0xea	-22
86	0xef	-17
87	0xc9	-55
88	0x16	22
89	0xa2	-94
90	0x32	50
91	0xf7	-9
92	0xc9	-55
93	0x5a	90
94	0x13	19
95	0xec	-20
96	0xf6	-10
97	0xe5	-27
98	0xc3	-61
99	0xef	-17
100	0x2c	44
101	0x44	68
102	0xe6	-26
103	0xe5	-27
104	0xfd	-3
105	0x28	40
106	0xf3	-13
107	0x10	16
108	0x24	36
109	0xf8	-8
110	0xe4	-28
111	0xcf	-49
112	0x4d	77
113	0x08	8
114	0x31	49
115	0x0b	11
116	0x3b	59
117	0xcb	-53
118	0xf4	-12
119	0x0b	11
120	0x05	5
121	0xe5	-27
122	0x0d	13
123	0x3d	61
124	0x67	103
125	0x0b	11
126	0xcd	-51
127	0xf0	-16
128	0x21	33
129	0xfe	-2
130	0x2a	42
131	0x94	-108
132	0xd3	-45
133	0x01	1
134	0xf5	-11
135	0xe4	-28
136	0xf2	-14
137	0xef	-17
138	0x9a	-102
139	0x47	71
140	0xd5	-43
141	0x34	52
142	0xe8	-24
143	0x48	72
144	0x3c	60
145	0x25	37
146	0x18	24
147	0xed	-19
148	0x19	25
149	0xc1	-63
150	0x00	0
151	0xe8	-24
152	0xd3	-45
153	0xfc	-4
154	0x64	100
155	0xe7	-25
156	0xfe	-2
157	0x05	5
158	0xce	-50
159	0x07	7
160	0xef	-17
161	0xce	-50
162	0x0a	10
163	0xe0	-32
164	0x1c	28
165	0x2b	43
166	0x11	17
167	0xb1	-79
168	0x20	32
169	0xf8	-8
170	0xf3	-13
171	0x0d	13
172	0xde	-34
173	0xce	-50
174	0x0f	15
175	0xdf	-33
176	0x1a	26
177	0x1f	31
178	0x18	24
179	0x21	33
180	0x22	34
181	0x09	9
182	0xde	-34
183	0x03	3
184	0x1f	31
185	0x1c	28
186	0x1b	27
187	0x16	22
188	0x3b	59
189	0x0a	10
190	0x4c	76
191	0x07	7
192	0xf4	-12
193	0xec	-20
194	0x17	23
195	0x2f	47
196	0xea	-22
197	0x1f	31
198	0x4d	77
199	0xe2	-30
200	0x2a	42
201	0xe0	-32
202	0xf6	-10
203	0x1d	29
204	0x07	7
205	0xe0	-32
206	0xf6	-10
207	0x0b	11
208	0xfe	-2
209	0xea	-22
210	0x0b	11
211	0x1a	26
212	0xe7	-25
213	0x09	9
214	0xcf	-49
215	0x17	23
216	0xd9	-39
217	0x16	22
218	0xd5	-43
219	0x02	2
220	0x12	18
221	0xe4	-28
222	0x0f	15
223	0xfe	-2
224	0x06	6
225	0xf3	-13
226	0x28	40
227	0xfc	-4
228	0xc3	-61
229	0x73	115
230	0x06	6
231	0x0c	12
232	0xf5	-11
233	0x7f	127
234	0x21	33
235	0xe8	-24
236	0x07	7
237	0xe4	-28
238	0x27	39
239	0xe2	-30
240	0xf4	-12
241	0x15	21
242	0xf8	-8
243	0xd6	-42
244	0xfe	-2
245	0xd9	-39
246	0x21	33
247	0xeb	-21
248	0xeb	-21
249	0xfd	-3
250	0x21	33
251	0x03	3
252	0x2c	44
253	0xf7	-9
254	0xe6	-26
255	0x53	83

MatMul i1 [128, 256] scale=0.002758056 zero_point=0
0	0xed	-0.052403063
1	0x42	0.18203169
2	0xa6	-0.24822503
3	0xb9	-0.19582197
4	0x45	0.19030586
5	0xfd	-0.008274168
6	0x41	0.17927364
7	0xdc	-0.09929001
8	0x16	0.06067723
9	0x3c	0.16548336
10	0x36	0.14893502
11	0x22	0.0937739
12	0x36	0.14893502
13	0x12	0.049645007
14	0xa9	-0.23995087
15	0x3a	0.15996724
16	0xbf	-0.17927364
17	0xbe	-0.18203169
18	0x29	0.11308029
19	0x6d	0.3006281
20	0x31	0.13514474
21	0xf4	-0.03309667
22	0xf1	-0.04137084
23	0x27	0.10756418
24	0xca	-0.14893502
25	0xcd	-0.14066085
26	0x36	0.14893502
27	0xf3	-0.035854727
28	0xdd	-0.09653196
29	0xa1	-0.2620153
30	0xb7	-0.20133808
31	0xd2	-0.12687057
32	0x2f	0.12962863
33	0x46	0.19306391
34	0x47	0.19582197
35	0xc3	-0.16824141
36	0x5e	0.25925726
37	0x3f	0.17375752
38	0x39	0.15720919
39	0xe2	-0.08274168
40	0x30	0.13238668
41	0xc9	-0.15169308
42	0x4f	0.21788642
43	0x21	0.091015846
44	0xc8	-0.15445113
45	0x33	0.14066085
46	0x4a	0.20409614
47	0x3e	0.17099947
48	0xe0	-0.08825779
49	0x18	0.06619334
50	0x3c	0.16548336
51	0xf5	-0.030338615
52	0x6e	0.30338615
53	0x28	0.11032224
54	0xbb	-0.19030586
55	0xc9	-0.15169308
56	0xd4	-0.12135446
57	0xe2	-0.08274168
58	0x04	0.011032224
59	0x4c	0.20961225
60	0xe3	-0.07998362
61	0x2e	0.12687057
62	0xe7	-0.0689514
63	0x64	0.2758056
64	0x37	0.15169308
65	0xdf	-0.091015846
66	0x36	0.14893502
67	0x3e	0.17099947
68	0x05	0.01379028
69	0x35	0.14617696
70	0xd1	-0.12962863
71	0x4b	0.2068542
72	0x47	0.19582197
73	0x27	0.10756418
74	0xeb	-0.057919174
75	0x47	0.19582197
76	0xbb	-0.19030586
77	0x6d	0.3006281
78	0xd2	-0.12687057
79	0xbc	-0.1875478
80	0xb0	-0.22064447
81	0xf8	-0.022064447
82	0x64	0.2758056
83	0xcf	-0.13514474
84	0xd7	-0.11308029
85	0xbb	-0.19030586
86	0xbe	-0.18203169
87	0x2f	0.12962863
88	0x4d	0.2123703
89	0xfb	-0.01379028
90	0x41	0.17927364
91	0x3d	0.16824141
92	0x04	0.011032224
93	0xed	-0.052403063
94	0xe7	-0.0689514
95	0x55	0.23443475
96	0x34	0.14341891
97	0xe4	-0.077225566
98	0x27	0.10756418
99	0x3e	0.17099947
100	0xc9	-0.15169308
101	0x27	0.10756418
102	0x40	0.17651558
103	0x53	0.22891864
104	0xf6	-0.02758056
105	0xf6	-0.02758056
106	0xb5	-0.2068542
107	0x48	0.19858003
108	0xd3	-0.12411252
109	0x38	0.15445113
110	0x4c	0.20961225
111	0x3f	0.17375752
112	0x38	0.15445113
113	0x1b	0.07446751
114	0xa7	-0.24546698
115	0x40	0.17651558
116	0x0b	0.030338615
117	0x53	0.22891864
118	0xd8	-0.11032224
119	0x26	0.104806125
120	0x01	0.002758056
121	0xca	-0.14893502
122	0x52	0.22616059
123	0xf5	-0.030338615
124	0xe6	-0.071709454
125	0xda	-0.104806125
126	0x4d	0.2123703
127	0xb2	-0.21512836
128	0x10	0.044128895
129	0xe9	-0.06343529
130	0x00	0.0
131	0x09	0.024822503
132	0xe9	-0.06343529
133	0x1a	0.071709454
134	0x0d	0.035854727
135	0x04	0.011032224
136	0xfe	-0.005516112
137	0x0a	0.02758056
138	0x02	0.005516112
139	0xf7	-0.024822503
140	0x01	0.002758056
141	0x1b	0.07446751
142	0x17	0.06343529
143	0xf5	-0.030338615
144	0x00	0.0
145	0xef	-0.04688695
146	0x1b	0.07446751
147	0xee	-0.049645007
148	0xfb	-0.01379028
149	0x09	0.024822503
150	0x16	0.06067723
151	0xeb	-0.057919174
152	0xf4	-0.03309667
153	0xf8	-0.022064447
154	0x02	0.005516112
155	0xe7	-0.0689514
156	0x04	0.011032224
157	0xf8	-0.022064447
158	0x1b	0.07446751
159	0x12	0.049645007
160	0x1b	0.07446751
161	0x11	0.04688695
162	0x0b	0.030338615
163	0xec	-0.05516112
164	0xff	-0.002758056
165	0xff	-0.002758056
166	0xf3	-0.035854727
167	0x19	0.0689514
168	0xe8	-0.06619334
169	0x02	0.005516112
170	0x01	0.002758056
171	0x05	0.01379028
172	0xf9	-0.019306391
173	0xe4	-0.077225566
174	0xf0	-0.044128895
175	0x06	0.016548336
176	0x09	0.024822503
177	0xf3	-0.035854727
178	0xf0	-0.044128895
179	0xed	-0.052403063
180	0x06	0.016548336
181	0x09	0.024822503
182	0x01	0.002758056
183	0x1a	0.071709454
184	0xfb	-0.01379028
185	0xff	-0.002758056
186	0xfd	-0.008274168
187	0x04	0.011032224
188	0xf1	-0.04137084
189	0x05	0.01379028
190	0xe8	-0.06619334
191	0xee	-0.049645007
192	0xf3	-0.035854727
193	0xf9	-0.019306391
194	0x11	0.04688695
195	0x12	0.049645007
196	0xf4	-0.03309667
197	0xfe	-0.005516112
198	0xfb	-0.01379028
199	0xf0	-0.044128895
200	0xf2	-0.038612783
201	0x09	0.024822503
202	0xf8	-0.022064447
203	0xf6	-0.02758056
204	0x06	0.016548336
205	0x0b	0.030338615
206	0xfa	-0.016548336
207	0x0c	0.03309667
208	0x07	0.019306391
209	0xfd	-0.008274168
210	0x08	0.022064447
211	0xf5	-0.030338615
212	0x02	0.005516112
213	0x09	0.024822503
214	0xec	-0.05516112
215	0x07	0.019306391
216	0x06	0.016548336
217	0x13	0.052403063
218	0x14	0.05516112
219	0xfa	-0.016548336
220	0x19	0.0689514
221	0x0a	0.02758056
222	0xff	-0.002758056
223	0xf0	-0.044128895
224	0x06	0.016548336
225	0x00	0.0
226	0xf1	-0.04137084
227	0x0f	0.04137084
228	0xfc	-0.011032224
229	0x08	0.022064447
230	0xf6	-0.02758056
231	0xfa	-0.016548336
232	0xf9	-0.019306391
233	0xe8	-0.06619334
234	0xe9	-0.06343529
235	0xfc	-0.011032224
236	0x18	0.06619334
237	0x08	0.022064447
238	0xfc	-0.011032224
239	0x0a	0.02758056
240	0x0a	0.02758056
241	0x07	0.019306391
242	0xef	-0.04688695
243	0x08	0.022064447
244	0x08	0.022064447
245	0x19	0.0689514
246	0xf5	-0.030338615
247	0x16	0.06067723
248	0xee	-0.049645007
249	0x12	0.049645007
250	0xf5	-0.030338615
251	0x05	0.01379028
252	0xea	-0.06067723
253	0x06	0.016548336
254	0xfa	-0.016548336
255	0x07	0.019306391
